{"format": "graph-model", "generatedBy": "2.5.0", "convertedBy": "TensorFlow.js Converter v3.6.0", "signature": {"inputs": {"input_2:0": {"name": "input_2:0", "dtype": "DT_FLOAT", "tensorShape": {"dim": [{"size": "-1"}, {"size": "-1"}, {"size": "-1"}, {"size": "3"}]}}}, "outputs": {"Identity:0": {"name": "Identity:0", "dtype": "DT_FLOAT", "tensorShape": {"dim": [{"size": "-1"}, {"size": "-1"}, {"size": "-1"}, {"size": "3"}]}}}}, "modelTopology": {"node": [{"name": "StatefulPartitionedCall/model_1/instance_normalization_15/Reshape_1", "op": "Const", "attr": {"dtype": {"type": "DT_FLOAT"}, "value": {"tensor": {"dtype": "DT_FLOAT", "tensorShape": {"dim": [{"size": "1"}, {"size": "1"}, {"size": "1"}, {"size": "32"}]}}}}}, {"name": "StatefulPartitionedCall/model_1/instance_normalization_16/Reshape_1", "op": "Const", "attr": {"value": {"tensor": {"dtype": "DT_FLOAT", "tensorShape": {"dim": [{"size": "1"}, {"size": "1"}, {"size": "1"}, {"size": "32"}]}}}, "dtype": {"type": "DT_FLOAT"}}}, {"name": "StatefulPartitionedCall/model_1/conv2d_15/Conv2D/ReadVariableOp", "op": "Const", "attr": {"value": {"tensor": {"dtype": "DT_FLOAT", "tensorShape": {"dim": [{"size": "3"}, {"size": "3"}, {"size": "64"}, {"size": "32"}]}}}, "dtype": {"type": "DT_FLOAT"}}}, {"name": "StatefulPartitionedCall/model_1/conv2d_15/BiasAdd/ReadVariableOp", "op": "Const", "attr": {"value": {"tensor": {"dtype": "DT_FLOAT", "tensorShape": {"dim": [{"size": "32"}]}}}, "dtype": {"type": "DT_FLOAT"}}}, {"name": "StatefulPartitionedCall/model_1/instance_normalization_15/moments/mean/reduction_indices", "op": "Const", "attr": {"dtype": {"type": "DT_INT32"}, "value": {"tensor": {"dtype": "DT_INT32", "tensorShape": {"dim": [{"size": "2"}]}}}}}, {"name": "StatefulPartitionedCall/model_1/instance_normalization_15/moments/variance/reduction_indices", "op": "Const", "attr": {"value": {"tensor": {"dtype": "DT_INT32", "tensorShape": {"dim": [{"size": "2"}]}}}, "dtype": {"type": "DT_INT32"}}}, {"name": "StatefulPartitionedCall/model_1/instance_normalization_15/batchnorm/add/y", "op": "Const", "attr": {"value": {"tensor": {"dtype": "DT_FLOAT", "tensorShape": {}}}, "dtype": {"type": "DT_FLOAT"}}}, {"name": "StatefulPartitionedCall/model_1/instance_normalization_15/Reshape", "op": "Const", "attr": {"value": {"tensor": {"dtype": "DT_FLOAT", "tensorShape": {"dim": [{"size": "1"}, {"size": "1"}, {"size": "1"}, {"size": "32"}]}}}, "dtype": {"type": "DT_FLOAT"}}}, {"name": "StatefulPartitionedCall/model_1/lambda_2/mul/x", "op": "Const", "attr": {"dtype": {"type": "DT_INT32"}, "value": {"tensor": {"dtype": "DT_INT32", "tensorShape": {}}}}}, {"name": "StatefulPartitionedCall/model_1/lambda_2/strided_slice/stack", "op": "Const", "attr": {"dtype": {"type": "DT_INT32"}, "value": {"tensor": {"dtype": "DT_INT32", "tensorShape": {"dim": [{"size": "1"}]}}}}}, {"name": "StatefulPartitionedCall/model_1/lambda_2/strided_slice/stack_1", "op": "Const", "attr": {"dtype": {"type": "DT_INT32"}, "value": {"tensor": {"dtype": "DT_INT32", "tensorShape": {"dim": [{"size": "1"}]}}}}}, {"name": "StatefulPartitionedCall/model_1/lambda_2/strided_slice/stack_2", "op": "Const", "attr": {"dtype": {"type": "DT_INT32"}, "value": {"tensor": {"dtype": "DT_INT32", "tensorShape": {"dim": [{"size": "1"}]}}}}}, {"name": "StatefulPartitionedCall/model_1/lambda_2/mul_1/x", "op": "Const", "attr": {"dtype": {"type": "DT_INT32"}, "value": {"tensor": {"dtype": "DT_INT32", "tensorShape": {}}}}}, {"name": "StatefulPartitionedCall/model_1/instance_normalization_13/Reshape_1", "op": "Const", "attr": {"value": {"tensor": {"dtype": "DT_FLOAT", "tensorShape": {"dim": [{"size": "1"}, {"size": "1"}, {"size": "1"}, {"size": "64"}]}}}, "dtype": {"type": "DT_FLOAT"}}}, {"name": "StatefulPartitionedCall/model_1/instance_normalization_14/Reshape_1", "op": "Const", "attr": {"value": {"tensor": {"dtype": "DT_FLOAT", "tensorShape": {"dim": [{"size": "1"}, {"size": "1"}, {"size": "1"}, {"size": "64"}]}}}, "dtype": {"type": "DT_FLOAT"}}}, {"name": "StatefulPartitionedCall/model_1/conv2d_13/Conv2D/ReadVariableOp", "op": "Const", "attr": {"value": {"tensor": {"dtype": "DT_FLOAT", "tensorShape": {"dim": [{"size": "3"}, {"size": "3"}, {"size": "128"}, {"size": "64"}]}}}, "dtype": {"type": "DT_FLOAT"}}}, {"name": "StatefulPartitionedCall/model_1/conv2d_13/BiasAdd/ReadVariableOp", "op": "Const", "attr": {"dtype": {"type": "DT_FLOAT"}, "value": {"tensor": {"dtype": "DT_FLOAT", "tensorShape": {"dim": [{"size": "64"}]}}}}}, {"name": "StatefulPartitionedCall/model_1/instance_normalization_13/moments/mean/reduction_indices", "op": "Const", "attr": {"dtype": {"type": "DT_INT32"}, "value": {"tensor": {"dtype": "DT_INT32", "tensorShape": {"dim": [{"size": "2"}]}}}}}, {"name": "StatefulPartitionedCall/model_1/instance_normalization_13/moments/variance/reduction_indices", "op": "Const", "attr": {"value": {"tensor": {"dtype": "DT_INT32", "tensorShape": {"dim": [{"size": "2"}]}}}, "dtype": {"type": "DT_INT32"}}}, {"name": "StatefulPartitionedCall/model_1/instance_normalization_13/batchnorm/add/y", "op": "Const", "attr": {"dtype": {"type": "DT_FLOAT"}, "value": {"tensor": {"dtype": "DT_FLOAT", "tensorShape": {}}}}}, {"name": "StatefulPartitionedCall/model_1/instance_normalization_13/Reshape", "op": "Const", "attr": {"value": {"tensor": {"dtype": "DT_FLOAT", "tensorShape": {"dim": [{"size": "1"}, {"size": "1"}, {"size": "1"}, {"size": "64"}]}}}, "dtype": {"type": "DT_FLOAT"}}}, {"name": "StatefulPartitionedCall/model_1/lambda_1/mul/x", "op": "Const", "attr": {"value": {"tensor": {"dtype": "DT_INT32", "tensorShape": {}}}, "dtype": {"type": "DT_INT32"}}}, {"name": "StatefulPartitionedCall/model_1/lambda_1/strided_slice/stack", "op": "Const", "attr": {"value": {"tensor": {"dtype": "DT_INT32", "tensorShape": {"dim": [{"size": "1"}]}}}, "dtype": {"type": "DT_INT32"}}}, {"name": "StatefulPartitionedCall/model_1/lambda_1/strided_slice/stack_1", "op": "Const", "attr": {"value": {"tensor": {"dtype": "DT_INT32", "tensorShape": {"dim": [{"size": "1"}]}}}, "dtype": {"type": "DT_INT32"}}}, {"name": "StatefulPartitionedCall/model_1/lambda_1/strided_slice/stack_2", "op": "Const", "attr": {"dtype": {"type": "DT_INT32"}, "value": {"tensor": {"dtype": "DT_INT32", "tensorShape": {"dim": [{"size": "1"}]}}}}}, {"name": "StatefulPartitionedCall/model_1/lambda_1/mul_1/x", "op": "Const", "attr": {"value": {"tensor": {"dtype": "DT_INT32", "tensorShape": {}}}, "dtype": {"type": "DT_INT32"}}}, {"name": "StatefulPartitionedCall/model_1/instance_normalization_11/Reshape_1", "op": "Const", "attr": {"dtype": {"type": "DT_FLOAT"}, "value": {"tensor": {"dtype": "DT_FLOAT", "tensorShape": {"dim": [{"size": "1"}, {"size": "1"}, {"size": "1"}, {"size": "128"}]}}}}}, {"name": "StatefulPartitionedCall/model_1/instance_normalization_12/Reshape_1", "op": "Const", "attr": {"dtype": {"type": "DT_FLOAT"}, "value": {"tensor": {"dtype": "DT_FLOAT", "tensorShape": {"dim": [{"size": "1"}, {"size": "1"}, {"size": "1"}, {"size": "128"}]}}}}}, {"name": "StatefulPartitionedCall/model_1/conv2d_11/Conv2D/ReadVariableOp", "op": "Const", "attr": {"dtype": {"type": "DT_FLOAT"}, "value": {"tensor": {"dtype": "DT_FLOAT", "tensorShape": {"dim": [{"size": "3"}, {"size": "3"}, {"size": "128"}, {"size": "128"}]}}}}}, {"name": "StatefulPartitionedCall/model_1/conv2d_11/BiasAdd/ReadVariableOp", "op": "Const", "attr": {"value": {"tensor": {"dtype": "DT_FLOAT", "tensorShape": {"dim": [{"size": "128"}]}}}, "dtype": {"type": "DT_FLOAT"}}}, {"name": "StatefulPartitionedCall/model_1/instance_normalization_11/moments/mean/reduction_indices", "op": "Const", "attr": {"value": {"tensor": {"dtype": "DT_INT32", "tensorShape": {"dim": [{"size": "2"}]}}}, "dtype": {"type": "DT_INT32"}}}, {"name": "StatefulPartitionedCall/model_1/instance_normalization_11/moments/variance/reduction_indices", "op": "Const", "attr": {"dtype": {"type": "DT_INT32"}, "value": {"tensor": {"dtype": "DT_INT32", "tensorShape": {"dim": [{"size": "2"}]}}}}}, {"name": "StatefulPartitionedCall/model_1/instance_normalization_11/batchnorm/add/y", "op": "Const", "attr": {"dtype": {"type": "DT_FLOAT"}, "value": {"tensor": {"dtype": "DT_FLOAT", "tensorShape": {}}}}}, {"name": "StatefulPartitionedCall/model_1/instance_normalization_11/Reshape", "op": "Const", "attr": {"value": {"tensor": {"dtype": "DT_FLOAT", "tensorShape": {"dim": [{"size": "1"}, {"size": "1"}, {"size": "1"}, {"size": "128"}]}}}, "dtype": {"type": "DT_FLOAT"}}}, {"name": "StatefulPartitionedCall/model_1/lambda/mul/x", "op": "Const", "attr": {"dtype": {"type": "DT_INT32"}, "value": {"tensor": {"dtype": "DT_INT32", "tensorShape": {}}}}}, {"name": "StatefulPartitionedCall/model_1/lambda/strided_slice/stack", "op": "Const", "attr": {"value": {"tensor": {"dtype": "DT_INT32", "tensorShape": {"dim": [{"size": "1"}]}}}, "dtype": {"type": "DT_INT32"}}}, {"name": "StatefulPartitionedCall/model_1/lambda/strided_slice/stack_1", "op": "Const", "attr": {"value": {"tensor": {"dtype": "DT_INT32", "tensorShape": {"dim": [{"size": "1"}]}}}, "dtype": {"type": "DT_INT32"}}}, {"name": "StatefulPartitionedCall/model_1/lambda/strided_slice/stack_2", "op": "Const", "attr": {"value": {"tensor": {"dtype": "DT_INT32", "tensorShape": {"dim": [{"size": "1"}]}}}, "dtype": {"type": "DT_INT32"}}}, {"name": "StatefulPartitionedCall/model_1/lambda/mul_1/x", "op": "Const", "attr": {"dtype": {"type": "DT_INT32"}, "value": {"tensor": {"dtype": "DT_INT32", "tensorShape": {}}}}}, {"name": "StatefulPartitionedCall/model_1/instance_normalization_10/Reshape_1", "op": "Const", "attr": {"dtype": {"type": "DT_FLOAT"}, "value": {"tensor": {"dtype": "DT_FLOAT", "tensorShape": {"dim": [{"size": "1"}, {"size": "1"}, {"size": "1"}, {"size": "128"}]}}}}}, {"name": "StatefulPartitionedCall/model_1/conv2d_10/Conv2D/ReadVariableOp", "op": "Const", "attr": {"value": {"tensor": {"dtype": "DT_FLOAT", "tensorShape": {"dim": [{"size": "3"}, {"size": "3"}, {"size": "128"}, {"size": "128"}]}}}, "dtype": {"type": "DT_FLOAT"}}}, {"name": "StatefulPartitionedCall/model_1/conv2d_10/BiasAdd/ReadVariableOp", "op": "Const", "attr": {"value": {"tensor": {"dtype": "DT_FLOAT", "tensorShape": {"dim": [{"size": "128"}]}}}, "dtype": {"type": "DT_FLOAT"}}}, {"name": "StatefulPartitionedCall/model_1/instance_normalization_10/moments/mean/reduction_indices", "op": "Const", "attr": {"dtype": {"type": "DT_INT32"}, "value": {"tensor": {"dtype": "DT_INT32", "tensorShape": {"dim": [{"size": "2"}]}}}}}, {"name": "StatefulPartitionedCall/model_1/instance_normalization_10/moments/variance/reduction_indices", "op": "Const", "attr": {"value": {"tensor": {"dtype": "DT_INT32", "tensorShape": {"dim": [{"size": "2"}]}}}, "dtype": {"type": "DT_INT32"}}}, {"name": "StatefulPartitionedCall/model_1/instance_normalization_10/batchnorm/add/y", "op": "Const", "attr": {"value": {"tensor": {"dtype": "DT_FLOAT", "tensorShape": {}}}, "dtype": {"type": "DT_FLOAT"}}}, {"name": "StatefulPartitionedCall/model_1/instance_normalization_10/Reshape", "op": "Const", "attr": {"dtype": {"type": "DT_FLOAT"}, "value": {"tensor": {"dtype": "DT_FLOAT", "tensorShape": {"dim": [{"size": "1"}, {"size": "1"}, {"size": "1"}, {"size": "128"}]}}}}}, {"name": "StatefulPartitionedCall/model_1/instance_normalization_9/Reshape_1", "op": "Const", "attr": {"dtype": {"type": "DT_FLOAT"}, "value": {"tensor": {"dtype": "DT_FLOAT", "tensorShape": {"dim": [{"size": "1"}, {"size": "1"}, {"size": "1"}, {"size": "128"}]}}}}}, {"name": "StatefulPartitionedCall/model_1/conv2d_9/Conv2D/ReadVariableOp", "op": "Const", "attr": {"value": {"tensor": {"dtype": "DT_FLOAT", "tensorShape": {"dim": [{"size": "3"}, {"size": "3"}, {"size": "128"}, {"size": "128"}]}}}, "dtype": {"type": "DT_FLOAT"}}}, {"name": "StatefulPartitionedCall/model_1/conv2d_9/BiasAdd/ReadVariableOp", "op": "Const", "attr": {"value": {"tensor": {"dtype": "DT_FLOAT", "tensorShape": {"dim": [{"size": "128"}]}}}, "dtype": {"type": "DT_FLOAT"}}}, {"name": "StatefulPartitionedCall/model_1/instance_normalization_9/moments/mean/reduction_indices", "op": "Const", "attr": {"value": {"tensor": {"dtype": "DT_INT32", "tensorShape": {"dim": [{"size": "2"}]}}}, "dtype": {"type": "DT_INT32"}}}, {"name": "StatefulPartitionedCall/model_1/instance_normalization_9/moments/variance/reduction_indices", "op": "Const", "attr": {"value": {"tensor": {"dtype": "DT_INT32", "tensorShape": {"dim": [{"size": "2"}]}}}, "dtype": {"type": "DT_INT32"}}}, {"name": "StatefulPartitionedCall/model_1/instance_normalization_9/batchnorm/add/y", "op": "Const", "attr": {"value": {"tensor": {"dtype": "DT_FLOAT", "tensorShape": {}}}, "dtype": {"type": "DT_FLOAT"}}}, {"name": "StatefulPartitionedCall/model_1/instance_normalization_9/Reshape", "op": "Const", "attr": {"dtype": {"type": "DT_FLOAT"}, "value": {"tensor": {"dtype": "DT_FLOAT", "tensorShape": {"dim": [{"size": "1"}, {"size": "1"}, {"size": "1"}, {"size": "128"}]}}}}}, {"name": "StatefulPartitionedCall/model_1/instance_normalization_8/Reshape_1", "op": "Const", "attr": {"value": {"tensor": {"dtype": "DT_FLOAT", "tensorShape": {"dim": [{"size": "1"}, {"size": "1"}, {"size": "1"}, {"size": "128"}]}}}, "dtype": {"type": "DT_FLOAT"}}}, {"name": "StatefulPartitionedCall/model_1/conv2d_8/Conv2D/ReadVariableOp", "op": "Const", "attr": {"value": {"tensor": {"dtype": "DT_FLOAT", "tensorShape": {"dim": [{"size": "3"}, {"size": "3"}, {"size": "128"}, {"size": "128"}]}}}, "dtype": {"type": "DT_FLOAT"}}}, {"name": "StatefulPartitionedCall/model_1/conv2d_8/BiasAdd/ReadVariableOp", "op": "Const", "attr": {"dtype": {"type": "DT_FLOAT"}, "value": {"tensor": {"dtype": "DT_FLOAT", "tensorShape": {"dim": [{"size": "128"}]}}}}}, {"name": "StatefulPartitionedCall/model_1/instance_normalization_8/moments/mean/reduction_indices", "op": "Const", "attr": {"dtype": {"type": "DT_INT32"}, "value": {"tensor": {"dtype": "DT_INT32", "tensorShape": {"dim": [{"size": "2"}]}}}}}, {"name": "StatefulPartitionedCall/model_1/instance_normalization_8/moments/variance/reduction_indices", "op": "Const", "attr": {"dtype": {"type": "DT_INT32"}, "value": {"tensor": {"dtype": "DT_INT32", "tensorShape": {"dim": [{"size": "2"}]}}}}}, {"name": "StatefulPartitionedCall/model_1/instance_normalization_8/batchnorm/add/y", "op": "Const", "attr": {"dtype": {"type": "DT_FLOAT"}, "value": {"tensor": {"dtype": "DT_FLOAT", "tensorShape": {}}}}}, {"name": "StatefulPartitionedCall/model_1/instance_normalization_8/Reshape", "op": "Const", "attr": {"dtype": {"type": "DT_FLOAT"}, "value": {"tensor": {"dtype": "DT_FLOAT", "tensorShape": {"dim": [{"size": "1"}, {"size": "1"}, {"size": "1"}, {"size": "128"}]}}}}}, {"name": "StatefulPartitionedCall/model_1/instance_normalization_6/Reshape_1", "op": "Const", "attr": {"dtype": {"type": "DT_FLOAT"}, "value": {"tensor": {"dtype": "DT_FLOAT", "tensorShape": {"dim": [{"size": "1"}, {"size": "1"}, {"size": "1"}, {"size": "128"}]}}}}}, {"name": "StatefulPartitionedCall/model_1/conv2d_6/Conv2D/ReadVariableOp", "op": "Const", "attr": {"dtype": {"type": "DT_FLOAT"}, "value": {"tensor": {"dtype": "DT_FLOAT", "tensorShape": {"dim": [{"size": "3"}, {"size": "3"}, {"size": "64"}, {"size": "128"}]}}}}}, {"name": "StatefulPartitionedCall/model_1/conv2d_6/BiasAdd/ReadVariableOp", "op": "Const", "attr": {"dtype": {"type": "DT_FLOAT"}, "value": {"tensor": {"dtype": "DT_FLOAT", "tensorShape": {"dim": [{"size": "128"}]}}}}}, {"name": "StatefulPartitionedCall/model_1/instance_normalization_6/moments/mean/reduction_indices", "op": "Const", "attr": {"dtype": {"type": "DT_INT32"}, "value": {"tensor": {"dtype": "DT_INT32", "tensorShape": {"dim": [{"size": "2"}]}}}}}, {"name": "StatefulPartitionedCall/model_1/instance_normalization_6/moments/variance/reduction_indices", "op": "Const", "attr": {"value": {"tensor": {"dtype": "DT_INT32", "tensorShape": {"dim": [{"size": "2"}]}}}, "dtype": {"type": "DT_INT32"}}}, {"name": "StatefulPartitionedCall/model_1/instance_normalization_6/batchnorm/add/y", "op": "Const", "attr": {"dtype": {"type": "DT_FLOAT"}, "value": {"tensor": {"dtype": "DT_FLOAT", "tensorShape": {}}}}}, {"name": "StatefulPartitionedCall/model_1/instance_normalization_6/Reshape", "op": "Const", "attr": {"value": {"tensor": {"dtype": "DT_FLOAT", "tensorShape": {"dim": [{"size": "1"}, {"size": "1"}, {"size": "1"}, {"size": "128"}]}}}, "dtype": {"type": "DT_FLOAT"}}}, {"name": "StatefulPartitionedCall/model_1/instance_normalization_7/Reshape_1", "op": "Const", "attr": {"dtype": {"type": "DT_FLOAT"}, "value": {"tensor": {"dtype": "DT_FLOAT", "tensorShape": {"dim": [{"size": "1"}, {"size": "1"}, {"size": "1"}, {"size": "128"}]}}}}}, {"name": "StatefulPartitionedCall/model_1/instance_normalization_4/Reshape_1", "op": "Const", "attr": {"dtype": {"type": "DT_FLOAT"}, "value": {"tensor": {"dtype": "DT_FLOAT", "tensorShape": {"dim": [{"size": "1"}, {"size": "1"}, {"size": "1"}, {"size": "64"}]}}}}}, {"name": "StatefulPartitionedCall/model_1/conv2d_4/Conv2D/ReadVariableOp", "op": "Const", "attr": {"dtype": {"type": "DT_FLOAT"}, "value": {"tensor": {"dtype": "DT_FLOAT", "tensorShape": {"dim": [{"size": "3"}, {"size": "3"}, {"size": "32"}, {"size": "64"}]}}}}}, {"name": "StatefulPartitionedCall/model_1/conv2d_4/BiasAdd/ReadVariableOp", "op": "Const", "attr": {"value": {"tensor": {"dtype": "DT_FLOAT", "tensorShape": {"dim": [{"size": "64"}]}}}, "dtype": {"type": "DT_FLOAT"}}}, {"name": "StatefulPartitionedCall/model_1/instance_normalization_4/moments/mean/reduction_indices", "op": "Const", "attr": {"value": {"tensor": {"dtype": "DT_INT32", "tensorShape": {"dim": [{"size": "2"}]}}}, "dtype": {"type": "DT_INT32"}}}, {"name": "StatefulPartitionedCall/model_1/instance_normalization_4/moments/variance/reduction_indices", "op": "Const", "attr": {"dtype": {"type": "DT_INT32"}, "value": {"tensor": {"dtype": "DT_INT32", "tensorShape": {"dim": [{"size": "2"}]}}}}}, {"name": "StatefulPartitionedCall/model_1/instance_normalization_4/batchnorm/add/y", "op": "Const", "attr": {"dtype": {"type": "DT_FLOAT"}, "value": {"tensor": {"dtype": "DT_FLOAT", "tensorShape": {}}}}}, {"name": "StatefulPartitionedCall/model_1/instance_normalization_4/Reshape", "op": "Const", "attr": {"dtype": {"type": "DT_FLOAT"}, "value": {"tensor": {"dtype": "DT_FLOAT", "tensorShape": {"dim": [{"size": "1"}, {"size": "1"}, {"size": "1"}, {"size": "64"}]}}}}}, {"name": "StatefulPartitionedCall/model_1/instance_normalization_5/Reshape_1", "op": "Const", "attr": {"value": {"tensor": {"dtype": "DT_FLOAT", "tensorShape": {"dim": [{"size": "1"}, {"size": "1"}, {"size": "1"}, {"size": "64"}]}}}, "dtype": {"type": "DT_FLOAT"}}}, {"name": "StatefulPartitionedCall/model_1/instance_normalization_2/Reshape_1", "op": "Const", "attr": {"dtype": {"type": "DT_FLOAT"}, "value": {"tensor": {"dtype": "DT_FLOAT", "tensorShape": {"dim": [{"size": "1"}, {"size": "1"}, {"size": "1"}, {"size": "32"}]}}}}}, {"name": "StatefulPartitionedCall/model_1/conv2d_2/Conv2D/ReadVariableOp", "op": "Const", "attr": {"value": {"tensor": {"dtype": "DT_FLOAT", "tensorShape": {"dim": [{"size": "3"}, {"size": "3"}, {"size": "3"}, {"size": "32"}]}}}, "dtype": {"type": "DT_FLOAT"}}}, {"name": "StatefulPartitionedCall/model_1/conv2d_2/BiasAdd/ReadVariableOp", "op": "Const", "attr": {"value": {"tensor": {"dtype": "DT_FLOAT", "tensorShape": {"dim": [{"size": "32"}]}}}, "dtype": {"type": "DT_FLOAT"}}}, {"name": "StatefulPartitionedCall/model_1/instance_normalization_2/moments/mean/reduction_indices", "op": "Const", "attr": {"dtype": {"type": "DT_INT32"}, "value": {"tensor": {"dtype": "DT_INT32", "tensorShape": {"dim": [{"size": "2"}]}}}}}, {"name": "StatefulPartitionedCall/model_1/instance_normalization_2/moments/variance/reduction_indices", "op": "Const", "attr": {"value": {"tensor": {"dtype": "DT_INT32", "tensorShape": {"dim": [{"size": "2"}]}}}, "dtype": {"type": "DT_INT32"}}}, {"name": "StatefulPartitionedCall/model_1/instance_normalization_2/batchnorm/add/y", "op": "Const", "attr": {"value": {"tensor": {"dtype": "DT_FLOAT", "tensorShape": {}}}, "dtype": {"type": "DT_FLOAT"}}}, {"name": "StatefulPartitionedCall/model_1/instance_normalization_2/Reshape", "op": "Const", "attr": {"value": {"tensor": {"dtype": "DT_FLOAT", "tensorShape": {"dim": [{"size": "1"}, {"size": "1"}, {"size": "1"}, {"size": "32"}]}}}, "dtype": {"type": "DT_FLOAT"}}}, {"name": "StatefulPartitionedCall/model_1/instance_normalization_3/Reshape_1", "op": "Const", "attr": {"dtype": {"type": "DT_FLOAT"}, "value": {"tensor": {"dtype": "DT_FLOAT", "tensorShape": {"dim": [{"size": "1"}, {"size": "1"}, {"size": "1"}, {"size": "32"}]}}}}}, {"name": "StatefulPartitionedCall/model_1/instance_normalization/Reshape_1", "op": "Const", "attr": {"dtype": {"type": "DT_FLOAT"}, "value": {"tensor": {"dtype": "DT_FLOAT", "tensorShape": {"dim": [{"size": "1"}, {"size": "1"}, {"size": "1"}, {"size": "3"}]}}}}}, {"name": "StatefulPartitionedCall/model_1/conv2d/Conv2D/ReadVariableOp", "op": "Const", "attr": {"value": {"tensor": {"dtype": "DT_FLOAT", "tensorShape": {"dim": [{"size": "7"}, {"size": "7"}, {"size": "3"}, {"size": "3"}]}}}, "dtype": {"type": "DT_FLOAT"}}}, {"name": "StatefulPartitionedCall/model_1/conv2d/BiasAdd/ReadVariableOp", "op": "Const", "attr": {"value": {"tensor": {"dtype": "DT_FLOAT", "tensorShape": {"dim": [{"size": "3"}]}}}, "dtype": {"type": "DT_FLOAT"}}}, {"name": "StatefulPartitionedCall/model_1/instance_normalization/moments/mean/reduction_indices", "op": "Const", "attr": {"value": {"tensor": {"dtype": "DT_INT32", "tensorShape": {"dim": [{"size": "2"}]}}}, "dtype": {"type": "DT_INT32"}}}, {"name": "StatefulPartitionedCall/model_1/instance_normalization/moments/variance/reduction_indices", "op": "Const", "attr": {"dtype": {"type": "DT_INT32"}, "value": {"tensor": {"dtype": "DT_INT32", "tensorShape": {"dim": [{"size": "2"}]}}}}}, {"name": "StatefulPartitionedCall/model_1/instance_normalization/batchnorm/add/y", "op": "Const", "attr": {"value": {"tensor": {"dtype": "DT_FLOAT", "tensorShape": {}}}, "dtype": {"type": "DT_FLOAT"}}}, {"name": "StatefulPartitionedCall/model_1/instance_normalization/Reshape", "op": "Const", "attr": {"dtype": {"type": "DT_FLOAT"}, "value": {"tensor": {"dtype": "DT_FLOAT", "tensorShape": {"dim": [{"size": "1"}, {"size": "1"}, {"size": "1"}, {"size": "3"}]}}}}}, {"name": "StatefulPartitionedCall/model_1/instance_normalization_1/Reshape_1", "op": "Const", "attr": {"value": {"tensor": {"dtype": "DT_FLOAT", "tensorShape": {"dim": [{"size": "1"}, {"size": "1"}, {"size": "1"}, {"size": "3"}]}}}, "dtype": {"type": "DT_FLOAT"}}}, {"name": "StatefulPartitionedCall/model_1/conv2d_1/Conv2D/ReadVariableOp", "op": "Const", "attr": {"dtype": {"type": "DT_FLOAT"}, "value": {"tensor": {"dtype": "DT_FLOAT", "tensorShape": {"dim": [{"size": "1"}, {"size": "1"}, {"size": "3"}, {"size": "3"}]}}}}}, {"name": "StatefulPartitionedCall/model_1/conv2d_1/BiasAdd/ReadVariableOp", "op": "Const", "attr": {"value": {"tensor": {"dtype": "DT_FLOAT", "tensorShape": {"dim": [{"size": "3"}]}}}, "dtype": {"type": "DT_FLOAT"}}}, {"name": "StatefulPartitionedCall/model_1/instance_normalization_1/moments/mean/reduction_indices", "op": "Const", "attr": {"dtype": {"type": "DT_INT32"}, "value": {"tensor": {"dtype": "DT_INT32", "tensorShape": {"dim": [{"size": "2"}]}}}}}, {"name": "StatefulPartitionedCall/model_1/instance_normalization_1/moments/variance/reduction_indices", "op": "Const", "attr": {"value": {"tensor": {"dtype": "DT_INT32", "tensorShape": {"dim": [{"size": "2"}]}}}, "dtype": {"type": "DT_INT32"}}}, {"name": "StatefulPartitionedCall/model_1/instance_normalization_1/batchnorm/add/y", "op": "Const", "attr": {"value": {"tensor": {"dtype": "DT_FLOAT", "tensorShape": {}}}, "dtype": {"type": "DT_FLOAT"}}}, {"name": "StatefulPartitionedCall/model_1/instance_normalization_1/Reshape", "op": "Const", "attr": {"value": {"tensor": {"dtype": "DT_FLOAT", "tensorShape": {"dim": [{"size": "1"}, {"size": "1"}, {"size": "1"}, {"size": "3"}]}}}, "dtype": {"type": "DT_FLOAT"}}}, {"name": "StatefulPartitionedCall/model_1/zero_padding2d/Pad/paddings", "op": "Const", "attr": {"value": {"tensor": {"dtype": "DT_INT32", "tensorShape": {"dim": [{"size": "4"}, {"size": "2"}]}}}, "dtype": {"type": "DT_INT32"}}}, {"name": "StatefulPartitionedCall/model_1/conv2d_3/Conv2D/ReadVariableOp", "op": "Const", "attr": {"dtype": {"type": "DT_FLOAT"}, "value": {"tensor": {"dtype": "DT_FLOAT", "tensorShape": {"dim": [{"size": "1"}, {"size": "1"}, {"size": "3"}, {"size": "32"}]}}}}}, {"name": "StatefulPartitionedCall/model_1/conv2d_3/BiasAdd/ReadVariableOp", "op": "Const", "attr": {"dtype": {"type": "DT_FLOAT"}, "value": {"tensor": {"dtype": "DT_FLOAT", "tensorShape": {"dim": [{"size": "32"}]}}}}}, {"name": "StatefulPartitionedCall/model_1/instance_normalization_3/moments/mean/reduction_indices", "op": "Const", "attr": {"dtype": {"type": "DT_INT32"}, "value": {"tensor": {"dtype": "DT_INT32", "tensorShape": {"dim": [{"size": "2"}]}}}}}, {"name": "StatefulPartitionedCall/model_1/instance_normalization_3/moments/variance/reduction_indices", "op": "Const", "attr": {"dtype": {"type": "DT_INT32"}, "value": {"tensor": {"dtype": "DT_INT32", "tensorShape": {"dim": [{"size": "2"}]}}}}}, {"name": "StatefulPartitionedCall/model_1/instance_normalization_3/batchnorm/add/y", "op": "Const", "attr": {"dtype": {"type": "DT_FLOAT"}, "value": {"tensor": {"dtype": "DT_FLOAT", "tensorShape": {}}}}}, {"name": "StatefulPartitionedCall/model_1/instance_normalization_3/Reshape", "op": "Const", "attr": {"dtype": {"type": "DT_FLOAT"}, "value": {"tensor": {"dtype": "DT_FLOAT", "tensorShape": {"dim": [{"size": "1"}, {"size": "1"}, {"size": "1"}, {"size": "32"}]}}}}}, {"name": "StatefulPartitionedCall/model_1/zero_padding2d_1/Pad/paddings", "op": "Const", "attr": {"dtype": {"type": "DT_INT32"}, "value": {"tensor": {"dtype": "DT_INT32", "tensorShape": {"dim": [{"size": "4"}, {"size": "2"}]}}}}}, {"name": "StatefulPartitionedCall/model_1/conv2d_5/Conv2D/ReadVariableOp", "op": "Const", "attr": {"dtype": {"type": "DT_FLOAT"}, "value": {"tensor": {"dtype": "DT_FLOAT", "tensorShape": {"dim": [{"size": "1"}, {"size": "1"}, {"size": "32"}, {"size": "64"}]}}}}}, {"name": "StatefulPartitionedCall/model_1/conv2d_5/BiasAdd/ReadVariableOp", "op": "Const", "attr": {"dtype": {"type": "DT_FLOAT"}, "value": {"tensor": {"dtype": "DT_FLOAT", "tensorShape": {"dim": [{"size": "64"}]}}}}}, {"name": "StatefulPartitionedCall/model_1/instance_normalization_5/moments/mean/reduction_indices", "op": "Const", "attr": {"dtype": {"type": "DT_INT32"}, "value": {"tensor": {"dtype": "DT_INT32", "tensorShape": {"dim": [{"size": "2"}]}}}}}, {"name": "StatefulPartitionedCall/model_1/instance_normalization_5/moments/variance/reduction_indices", "op": "Const", "attr": {"dtype": {"type": "DT_INT32"}, "value": {"tensor": {"dtype": "DT_INT32", "tensorShape": {"dim": [{"size": "2"}]}}}}}, {"name": "StatefulPartitionedCall/model_1/instance_normalization_5/batchnorm/add/y", "op": "Const", "attr": {"dtype": {"type": "DT_FLOAT"}, "value": {"tensor": {"dtype": "DT_FLOAT", "tensorShape": {}}}}}, {"name": "StatefulPartitionedCall/model_1/instance_normalization_5/Reshape", "op": "Const", "attr": {"value": {"tensor": {"dtype": "DT_FLOAT", "tensorShape": {"dim": [{"size": "1"}, {"size": "1"}, {"size": "1"}, {"size": "64"}]}}}, "dtype": {"type": "DT_FLOAT"}}}, {"name": "StatefulPartitionedCall/model_1/zero_padding2d_2/Pad/paddings", "op": "Const", "attr": {"dtype": {"type": "DT_INT32"}, "value": {"tensor": {"dtype": "DT_INT32", "tensorShape": {"dim": [{"size": "4"}, {"size": "2"}]}}}}}, {"name": "StatefulPartitionedCall/model_1/conv2d_7/Conv2D/ReadVariableOp", "op": "Const", "attr": {"value": {"tensor": {"dtype": "DT_FLOAT", "tensorShape": {"dim": [{"size": "1"}, {"size": "1"}, {"size": "64"}, {"size": "128"}]}}}, "dtype": {"type": "DT_FLOAT"}}}, {"name": "StatefulPartitionedCall/model_1/conv2d_7/BiasAdd/ReadVariableOp", "op": "Const", "attr": {"dtype": {"type": "DT_FLOAT"}, "value": {"tensor": {"dtype": "DT_FLOAT", "tensorShape": {"dim": [{"size": "128"}]}}}}}, {"name": "StatefulPartitionedCall/model_1/instance_normalization_7/moments/mean/reduction_indices", "op": "Const", "attr": {"value": {"tensor": {"dtype": "DT_INT32", "tensorShape": {"dim": [{"size": "2"}]}}}, "dtype": {"type": "DT_INT32"}}}, {"name": "StatefulPartitionedCall/model_1/instance_normalization_7/moments/variance/reduction_indices", "op": "Const", "attr": {"value": {"tensor": {"dtype": "DT_INT32", "tensorShape": {"dim": [{"size": "2"}]}}}, "dtype": {"type": "DT_INT32"}}}, {"name": "StatefulPartitionedCall/model_1/instance_normalization_7/batchnorm/add/y", "op": "Const", "attr": {"value": {"tensor": {"dtype": "DT_FLOAT", "tensorShape": {}}}, "dtype": {"type": "DT_FLOAT"}}}, {"name": "StatefulPartitionedCall/model_1/instance_normalization_7/Reshape", "op": "Const", "attr": {"value": {"tensor": {"dtype": "DT_FLOAT", "tensorShape": {"dim": [{"size": "1"}, {"size": "1"}, {"size": "1"}, {"size": "128"}]}}}, "dtype": {"type": "DT_FLOAT"}}}, {"name": "StatefulPartitionedCall/model_1/lambda/strided_slice_1/stack", "op": "Const", "attr": {"dtype": {"type": "DT_INT32"}, "value": {"tensor": {"dtype": "DT_INT32", "tensorShape": {"dim": [{"size": "1"}]}}}}}, {"name": "StatefulPartitionedCall/model_1/lambda/strided_slice_1/stack_1", "op": "Const", "attr": {"dtype": {"type": "DT_INT32"}, "value": {"tensor": {"dtype": "DT_INT32", "tensorShape": {"dim": [{"size": "1"}]}}}}}, {"name": "StatefulPartitionedCall/model_1/lambda/strided_slice_1/stack_2", "op": "Const", "attr": {"value": {"tensor": {"dtype": "DT_INT32", "tensorShape": {"dim": [{"size": "1"}]}}}, "dtype": {"type": "DT_INT32"}}}, {"name": "StatefulPartitionedCall/model_1/conv2d_12/Conv2D/ReadVariableOp", "op": "Const", "attr": {"value": {"tensor": {"dtype": "DT_FLOAT", "tensorShape": {"dim": [{"size": "1"}, {"size": "1"}, {"size": "128"}, {"size": "128"}]}}}, "dtype": {"type": "DT_FLOAT"}}}, {"name": "StatefulPartitionedCall/model_1/conv2d_12/BiasAdd/ReadVariableOp", "op": "Const", "attr": {"value": {"tensor": {"dtype": "DT_FLOAT", "tensorShape": {"dim": [{"size": "128"}]}}}, "dtype": {"type": "DT_FLOAT"}}}, {"name": "StatefulPartitionedCall/model_1/instance_normalization_12/moments/mean/reduction_indices", "op": "Const", "attr": {"value": {"tensor": {"dtype": "DT_INT32", "tensorShape": {"dim": [{"size": "2"}]}}}, "dtype": {"type": "DT_INT32"}}}, {"name": "StatefulPartitionedCall/model_1/instance_normalization_12/moments/variance/reduction_indices", "op": "Const", "attr": {"value": {"tensor": {"dtype": "DT_INT32", "tensorShape": {"dim": [{"size": "2"}]}}}, "dtype": {"type": "DT_INT32"}}}, {"name": "StatefulPartitionedCall/model_1/instance_normalization_12/batchnorm/add/y", "op": "Const", "attr": {"value": {"tensor": {"dtype": "DT_FLOAT", "tensorShape": {}}}, "dtype": {"type": "DT_FLOAT"}}}, {"name": "StatefulPartitionedCall/model_1/instance_normalization_12/Reshape", "op": "Const", "attr": {"value": {"tensor": {"dtype": "DT_FLOAT", "tensorShape": {"dim": [{"size": "1"}, {"size": "1"}, {"size": "1"}, {"size": "128"}]}}}, "dtype": {"type": "DT_FLOAT"}}}, {"name": "StatefulPartitionedCall/model_1/lambda_1/strided_slice_1/stack", "op": "Const", "attr": {"dtype": {"type": "DT_INT32"}, "value": {"tensor": {"dtype": "DT_INT32", "tensorShape": {"dim": [{"size": "1"}]}}}}}, {"name": "StatefulPartitionedCall/model_1/lambda_1/strided_slice_1/stack_1", "op": "Const", "attr": {"dtype": {"type": "DT_INT32"}, "value": {"tensor": {"dtype": "DT_INT32", "tensorShape": {"dim": [{"size": "1"}]}}}}}, {"name": "StatefulPartitionedCall/model_1/lambda_1/strided_slice_1/stack_2", "op": "Const", "attr": {"value": {"tensor": {"dtype": "DT_INT32", "tensorShape": {"dim": [{"size": "1"}]}}}, "dtype": {"type": "DT_INT32"}}}, {"name": "StatefulPartitionedCall/model_1/conv2d_14/Conv2D/ReadVariableOp", "op": "Const", "attr": {"value": {"tensor": {"dtype": "DT_FLOAT", "tensorShape": {"dim": [{"size": "1"}, {"size": "1"}, {"size": "128"}, {"size": "64"}]}}}, "dtype": {"type": "DT_FLOAT"}}}, {"name": "StatefulPartitionedCall/model_1/conv2d_14/BiasAdd/ReadVariableOp", "op": "Const", "attr": {"value": {"tensor": {"dtype": "DT_FLOAT", "tensorShape": {"dim": [{"size": "64"}]}}}, "dtype": {"type": "DT_FLOAT"}}}, {"name": "StatefulPartitionedCall/model_1/instance_normalization_14/moments/mean/reduction_indices", "op": "Const", "attr": {"value": {"tensor": {"dtype": "DT_INT32", "tensorShape": {"dim": [{"size": "2"}]}}}, "dtype": {"type": "DT_INT32"}}}, {"name": "StatefulPartitionedCall/model_1/instance_normalization_14/moments/variance/reduction_indices", "op": "Const", "attr": {"dtype": {"type": "DT_INT32"}, "value": {"tensor": {"dtype": "DT_INT32", "tensorShape": {"dim": [{"size": "2"}]}}}}}, {"name": "StatefulPartitionedCall/model_1/instance_normalization_14/batchnorm/add/y", "op": "Const", "attr": {"value": {"tensor": {"dtype": "DT_FLOAT", "tensorShape": {}}}, "dtype": {"type": "DT_FLOAT"}}}, {"name": "StatefulPartitionedCall/model_1/instance_normalization_14/Reshape", "op": "Const", "attr": {"value": {"tensor": {"dtype": "DT_FLOAT", "tensorShape": {"dim": [{"size": "1"}, {"size": "1"}, {"size": "1"}, {"size": "64"}]}}}, "dtype": {"type": "DT_FLOAT"}}}, {"name": "StatefulPartitionedCall/model_1/lambda_2/strided_slice_1/stack", "op": "Const", "attr": {"value": {"tensor": {"dtype": "DT_INT32", "tensorShape": {"dim": [{"size": "1"}]}}}, "dtype": {"type": "DT_INT32"}}}, {"name": "StatefulPartitionedCall/model_1/lambda_2/strided_slice_1/stack_1", "op": "Const", "attr": {"dtype": {"type": "DT_INT32"}, "value": {"tensor": {"dtype": "DT_INT32", "tensorShape": {"dim": [{"size": "1"}]}}}}}, {"name": "StatefulPartitionedCall/model_1/lambda_2/strided_slice_1/stack_2", "op": "Const", "attr": {"value": {"tensor": {"dtype": "DT_INT32", "tensorShape": {"dim": [{"size": "1"}]}}}, "dtype": {"type": "DT_INT32"}}}, {"name": "StatefulPartitionedCall/model_1/conv2d_16/Conv2D/ReadVariableOp", "op": "Const", "attr": {"value": {"tensor": {"dtype": "DT_FLOAT", "tensorShape": {"dim": [{"size": "1"}, {"size": "1"}, {"size": "64"}, {"size": "32"}]}}}, "dtype": {"type": "DT_FLOAT"}}}, {"name": "StatefulPartitionedCall/model_1/conv2d_16/BiasAdd/ReadVariableOp", "op": "Const", "attr": {"dtype": {"type": "DT_FLOAT"}, "value": {"tensor": {"dtype": "DT_FLOAT", "tensorShape": {"dim": [{"size": "32"}]}}}}}, {"name": "StatefulPartitionedCall/model_1/instance_normalization_16/moments/mean/reduction_indices", "op": "Const", "attr": {"value": {"tensor": {"dtype": "DT_INT32", "tensorShape": {"dim": [{"size": "2"}]}}}, "dtype": {"type": "DT_INT32"}}}, {"name": "StatefulPartitionedCall/model_1/instance_normalization_16/moments/variance/reduction_indices", "op": "Const", "attr": {"dtype": {"type": "DT_INT32"}, "value": {"tensor": {"dtype": "DT_INT32", "tensorShape": {"dim": [{"size": "2"}]}}}}}, {"name": "StatefulPartitionedCall/model_1/instance_normalization_16/batchnorm/add/y", "op": "Const", "attr": {"dtype": {"type": "DT_FLOAT"}, "value": {"tensor": {"dtype": "DT_FLOAT", "tensorShape": {}}}}}, {"name": "StatefulPartitionedCall/model_1/instance_normalization_16/Reshape", "op": "Const", "attr": {"dtype": {"type": "DT_FLOAT"}, "value": {"tensor": {"dtype": "DT_FLOAT", "tensorShape": {"dim": [{"size": "1"}, {"size": "1"}, {"size": "1"}, {"size": "32"}]}}}}}, {"name": "StatefulPartitionedCall/model_1/conv2d_17/Conv2D/ReadVariableOp", "op": "Const", "attr": {"dtype": {"type": "DT_FLOAT"}, "value": {"tensor": {"dtype": "DT_FLOAT", "tensorShape": {"dim": [{"size": "7"}, {"size": "7"}, {"size": "32"}, {"size": "3"}]}}}}}, {"name": "StatefulPartitionedCall/model_1/conv2d_17/BiasAdd/ReadVariableOp", "op": "Const", "attr": {"value": {"tensor": {"dtype": "DT_FLOAT", "tensorShape": {"dim": [{"size": "3"}]}}}, "dtype": {"type": "DT_FLOAT"}}}, {"name": "StatefulPartitionedCall/model_1/tf.math.multiply/Mul/y", "op": "Const", "attr": {"value": {"tensor": {"dtype": "DT_FLOAT", "tensorShape": {}}}, "dtype": {"type": "DT_FLOAT"}}}, {"name": "input_2", "op": "Placeholder", "attr": {"shape": {"shape": {"dim": [{"size": "-1"}, {"size": "-1"}, {"size": "-1"}, {"size": "3"}]}}, "dtype": {"type": "DT_FLOAT"}}}, {"name": "StatefulPartitionedCall/model_1/conv2d/BiasAdd", "op": "_FusedConv2D", "input": ["input_2", "StatefulPartitionedCall/model_1/conv2d/Conv2D/ReadVariableOp", "StatefulPartitionedCall/model_1/conv2d/BiasAdd/ReadVariableOp"], "device": "/device:CPU:0", "attr": {"use_cudnn_on_gpu": {"b": true}, "epsilon": {"f": 0.0}, "fused_ops": {"list": {"s": ["Qmlhc0FkZA=="]}}, "num_args": {"i": "1"}, "T": {"type": "DT_FLOAT"}, "dilations": {"list": {"i": ["1", "1", "1", "1"]}}, "data_format": {"s": "TkhXQw=="}, "explicit_paddings": {"list": {}}, "padding": {"s": "U0FNRQ=="}, "strides": {"list": {"i": ["1", "1", "1", "1"]}}}}, {"name": "StatefulPartitionedCall/model_1/conv2d_1/BiasAdd", "op": "_FusedConv2D", "input": ["input_2", "StatefulPartitionedCall/model_1/conv2d_1/Conv2D/ReadVariableOp", "StatefulPartitionedCall/model_1/conv2d_1/BiasAdd/ReadVariableOp"], "device": "/device:CPU:0", "attr": {"strides": {"list": {"i": ["1", "1", "1", "1"]}}, "epsilon": {"f": 0.0}, "explicit_paddings": {"list": {}}, "padding": {"s": "U0FNRQ=="}, "T": {"type": "DT_FLOAT"}, "data_format": {"s": "TkhXQw=="}, "num_args": {"i": "1"}, "use_cudnn_on_gpu": {"b": true}, "fused_ops": {"list": {"s": ["Qmlhc0FkZA=="]}}, "dilations": {"list": {"i": ["1", "1", "1", "1"]}}}}, {"name": "StatefulPartitionedCall/model_1/instance_normalization/moments/mean", "op": "Mean", "input": ["StatefulPartitionedCall/model_1/conv2d/BiasAdd", "StatefulPartitionedCall/model_1/instance_normalization/moments/mean/reduction_indices"], "attr": {"keep_dims": {"b": true}, "Tidx": {"type": "DT_INT32"}, "T": {"type": "DT_FLOAT"}}}, {"name": "StatefulPartitionedCall/model_1/instance_normalization_1/moments/mean", "op": "Mean", "input": ["StatefulPartitionedCall/model_1/conv2d_1/BiasAdd", "StatefulPartitionedCall/model_1/instance_normalization_1/moments/mean/reduction_indices"], "attr": {"Tidx": {"type": "DT_INT32"}, "keep_dims": {"b": true}, "T": {"type": "DT_FLOAT"}}}, {"name": "StatefulPartitionedCall/model_1/instance_normalization/moments/SquaredDifference", "op": "SquaredDifference", "input": ["StatefulPartitionedCall/model_1/conv2d/BiasAdd", "StatefulPartitionedCall/model_1/instance_normalization/moments/mean"], "attr": {"T": {"type": "DT_FLOAT"}}}, {"name": "StatefulPartitionedCall/model_1/instance_normalization_1/moments/SquaredDifference", "op": "SquaredDifference", "input": ["StatefulPartitionedCall/model_1/conv2d_1/BiasAdd", "StatefulPartitionedCall/model_1/instance_normalization_1/moments/mean"], "attr": {"T": {"type": "DT_FLOAT"}}}, {"name": "StatefulPartitionedCall/model_1/instance_normalization/moments/variance", "op": "Mean", "input": ["StatefulPartitionedCall/model_1/instance_normalization/moments/SquaredDifference", "StatefulPartitionedCall/model_1/instance_normalization/moments/variance/reduction_indices"], "attr": {"T": {"type": "DT_FLOAT"}, "keep_dims": {"b": true}, "Tidx": {"type": "DT_INT32"}}}, {"name": "StatefulPartitionedCall/model_1/instance_normalization_1/moments/variance", "op": "Mean", "input": ["StatefulPartitionedCall/model_1/instance_normalization_1/moments/SquaredDifference", "StatefulPartitionedCall/model_1/instance_normalization_1/moments/variance/reduction_indices"], "attr": {"Tidx": {"type": "DT_INT32"}, "T": {"type": "DT_FLOAT"}, "keep_dims": {"b": true}}}, {"name": "StatefulPartitionedCall/model_1/instance_normalization/batchnorm/add", "op": "AddV2", "input": ["StatefulPartitionedCall/model_1/instance_normalization/moments/variance", "StatefulPartitionedCall/model_1/instance_normalization/batchnorm/add/y"], "attr": {"T": {"type": "DT_FLOAT"}}}, {"name": "StatefulPartitionedCall/model_1/instance_normalization_1/batchnorm/add", "op": "AddV2", "input": ["StatefulPartitionedCall/model_1/instance_normalization_1/moments/variance", "StatefulPartitionedCall/model_1/instance_normalization_1/batchnorm/add/y"], "attr": {"T": {"type": "DT_FLOAT"}}}, {"name": "StatefulPartitionedCall/model_1/instance_normalization/batchnorm/Rsqrt", "op": "Rsqrt", "input": ["StatefulPartitionedCall/model_1/instance_normalization/batchnorm/add"], "attr": {"T": {"type": "DT_FLOAT"}}}, {"name": "StatefulPartitionedCall/model_1/instance_normalization_1/batchnorm/Rsqrt", "op": "Rsqrt", "input": ["StatefulPartitionedCall/model_1/instance_normalization_1/batchnorm/add"], "attr": {"T": {"type": "DT_FLOAT"}}}, {"name": "StatefulPartitionedCall/model_1/instance_normalization/batchnorm/mul", "op": "Mul", "input": ["StatefulPartitionedCall/model_1/instance_normalization/batchnorm/Rsqrt", "StatefulPartitionedCall/model_1/instance_normalization/Reshape"], "attr": {"T": {"type": "DT_FLOAT"}}}, {"name": "StatefulPartitionedCall/model_1/instance_normalization_1/batchnorm/mul", "op": "Mul", "input": ["StatefulPartitionedCall/model_1/instance_normalization_1/batchnorm/Rsqrt", "StatefulPartitionedCall/model_1/instance_normalization_1/Reshape"], "attr": {"T": {"type": "DT_FLOAT"}}}, {"name": "StatefulPartitionedCall/model_1/instance_normalization/batchnorm/mul_2", "op": "Mul", "input": ["StatefulPartitionedCall/model_1/instance_normalization/moments/mean", "StatefulPartitionedCall/model_1/instance_normalization/batchnorm/mul"], "attr": {"T": {"type": "DT_FLOAT"}}}, {"name": "StatefulPartitionedCall/model_1/instance_normalization/batchnorm/mul_1", "op": "Mul", "input": ["StatefulPartitionedCall/model_1/conv2d/BiasAdd", "StatefulPartitionedCall/model_1/instance_normalization/batchnorm/mul"], "attr": {"T": {"type": "DT_FLOAT"}}}, {"name": "StatefulPartitionedCall/model_1/instance_normalization_1/batchnorm/mul_2", "op": "Mul", "input": ["StatefulPartitionedCall/model_1/instance_normalization_1/moments/mean", "StatefulPartitionedCall/model_1/instance_normalization_1/batchnorm/mul"], "attr": {"T": {"type": "DT_FLOAT"}}}, {"name": "StatefulPartitionedCall/model_1/instance_normalization_1/batchnorm/mul_1", "op": "Mul", "input": ["StatefulPartitionedCall/model_1/conv2d_1/BiasAdd", "StatefulPartitionedCall/model_1/instance_normalization_1/batchnorm/mul"], "attr": {"T": {"type": "DT_FLOAT"}}}, {"name": "StatefulPartitionedCall/model_1/instance_normalization/batchnorm/sub", "op": "Sub", "input": ["StatefulPartitionedCall/model_1/instance_normalization/Reshape_1", "StatefulPartitionedCall/model_1/instance_normalization/batchnorm/mul_2"], "attr": {"T": {"type": "DT_FLOAT"}}}, {"name": "StatefulPartitionedCall/model_1/instance_normalization_1/batchnorm/sub", "op": "Sub", "input": ["StatefulPartitionedCall/model_1/instance_normalization_1/Reshape_1", "StatefulPartitionedCall/model_1/instance_normalization_1/batchnorm/mul_2"], "attr": {"T": {"type": "DT_FLOAT"}}}, {"name": "StatefulPartitionedCall/model_1/instance_normalization/batchnorm/add_1", "op": "AddV2", "input": ["StatefulPartitionedCall/model_1/instance_normalization/batchnorm/mul_1", "StatefulPartitionedCall/model_1/instance_normalization/batchnorm/sub"], "attr": {"T": {"type": "DT_FLOAT"}}}, {"name": "StatefulPartitionedCall/model_1/instance_normalization_1/batchnorm/add_1", "op": "AddV2", "input": ["StatefulPartitionedCall/model_1/instance_normalization_1/batchnorm/mul_1", "StatefulPartitionedCall/model_1/instance_normalization_1/batchnorm/sub"], "attr": {"T": {"type": "DT_FLOAT"}}}, {"name": "StatefulPartitionedCall/model_1/add/add", "op": "AddV2", "input": ["StatefulPartitionedCall/model_1/instance_normalization/batchnorm/add_1", "StatefulPartitionedCall/model_1/instance_normalization_1/batchnorm/add_1"], "attr": {"T": {"type": "DT_FLOAT"}}}, {"name": "StatefulPartitionedCall/model_1/activation/Relu", "op": "Relu", "input": ["StatefulPartitionedCall/model_1/add/add"], "attr": {"T": {"type": "DT_FLOAT"}}}, {"name": "StatefulPartitionedCall/model_1/conv2d_2/BiasAdd", "op": "_FusedConv2D", "input": ["StatefulPartitionedCall/model_1/activation/Relu", "StatefulPartitionedCall/model_1/conv2d_2/Conv2D/ReadVariableOp", "StatefulPartitionedCall/model_1/conv2d_2/BiasAdd/ReadVariableOp"], "device": "/device:CPU:0", "attr": {"strides": {"list": {"i": ["1", "2", "2", "1"]}}, "explicit_paddings": {"list": {}}, "epsilon": {"f": 0.0}, "T": {"type": "DT_FLOAT"}, "data_format": {"s": "TkhXQw=="}, "num_args": {"i": "1"}, "use_cudnn_on_gpu": {"b": true}, "dilations": {"list": {"i": ["1", "1", "1", "1"]}}, "fused_ops": {"list": {"s": ["Qmlhc0FkZA=="]}}, "padding": {"s": "U0FNRQ=="}}}, {"name": "StatefulPartitionedCall/model_1/zero_padding2d/Pad", "op": "Pad", "input": ["StatefulPartitionedCall/model_1/activation/Relu", "StatefulPartitionedCall/model_1/zero_padding2d/Pad/paddings"], "attr": {"T": {"type": "DT_FLOAT"}, "Tpaddings": {"type": "DT_INT32"}}}, {"name": "StatefulPartitionedCall/model_1/instance_normalization_2/moments/mean", "op": "Mean", "input": ["StatefulPartitionedCall/model_1/conv2d_2/BiasAdd", "StatefulPartitionedCall/model_1/instance_normalization_2/moments/mean/reduction_indices"], "attr": {"T": {"type": "DT_FLOAT"}, "keep_dims": {"b": true}, "Tidx": {"type": "DT_INT32"}}}, {"name": "StatefulPartitionedCall/model_1/average_pooling2d/AvgPool", "op": "AvgPool", "input": ["StatefulPartitionedCall/model_1/zero_padding2d/Pad"], "attr": {"strides": {"list": {"i": ["1", "2", "2", "1"]}}, "padding": {"s": "VkFMSUQ="}, "data_format": {"s": "TkhXQw=="}, "T": {"type": "DT_FLOAT"}, "ksize": {"list": {"i": ["1", "2", "2", "1"]}}}}, {"name": "StatefulPartitionedCall/model_1/instance_normalization_2/moments/SquaredDifference", "op": "SquaredDifference", "input": ["StatefulPartitionedCall/model_1/conv2d_2/BiasAdd", "StatefulPartitionedCall/model_1/instance_normalization_2/moments/mean"], "attr": {"T": {"type": "DT_FLOAT"}}}, {"name": "StatefulPartitionedCall/model_1/conv2d_3/BiasAdd", "op": "_FusedConv2D", "input": ["StatefulPartitionedCall/model_1/average_pooling2d/AvgPool", "StatefulPartitionedCall/model_1/conv2d_3/Conv2D/ReadVariableOp", "StatefulPartitionedCall/model_1/conv2d_3/BiasAdd/ReadVariableOp"], "device": "/device:CPU:0", "attr": {"use_cudnn_on_gpu": {"b": true}, "T": {"type": "DT_FLOAT"}, "num_args": {"i": "1"}, "epsilon": {"f": 0.0}, "fused_ops": {"list": {"s": ["Qmlhc0FkZA=="]}}, "data_format": {"s": "TkhXQw=="}, "padding": {"s": "U0FNRQ=="}, "dilations": {"list": {"i": ["1", "1", "1", "1"]}}, "strides": {"list": {"i": ["1", "1", "1", "1"]}}, "explicit_paddings": {"list": {}}}}, {"name": "StatefulPartitionedCall/model_1/instance_normalization_2/moments/variance", "op": "Mean", "input": ["StatefulPartitionedCall/model_1/instance_normalization_2/moments/SquaredDifference", "StatefulPartitionedCall/model_1/instance_normalization_2/moments/variance/reduction_indices"], "attr": {"T": {"type": "DT_FLOAT"}, "keep_dims": {"b": true}, "Tidx": {"type": "DT_INT32"}}}, {"name": "StatefulPartitionedCall/model_1/instance_normalization_3/moments/mean", "op": "Mean", "input": ["StatefulPartitionedCall/model_1/conv2d_3/BiasAdd", "StatefulPartitionedCall/model_1/instance_normalization_3/moments/mean/reduction_indices"], "attr": {"Tidx": {"type": "DT_INT32"}, "T": {"type": "DT_FLOAT"}, "keep_dims": {"b": true}}}, {"name": "StatefulPartitionedCall/model_1/instance_normalization_2/batchnorm/add", "op": "AddV2", "input": ["StatefulPartitionedCall/model_1/instance_normalization_2/moments/variance", "StatefulPartitionedCall/model_1/instance_normalization_2/batchnorm/add/y"], "attr": {"T": {"type": "DT_FLOAT"}}}, {"name": "StatefulPartitionedCall/model_1/instance_normalization_3/moments/SquaredDifference", "op": "SquaredDifference", "input": ["StatefulPartitionedCall/model_1/conv2d_3/BiasAdd", "StatefulPartitionedCall/model_1/instance_normalization_3/moments/mean"], "attr": {"T": {"type": "DT_FLOAT"}}}, {"name": "StatefulPartitionedCall/model_1/instance_normalization_2/batchnorm/Rsqrt", "op": "Rsqrt", "input": ["StatefulPartitionedCall/model_1/instance_normalization_2/batchnorm/add"], "attr": {"T": {"type": "DT_FLOAT"}}}, {"name": "StatefulPartitionedCall/model_1/instance_normalization_3/moments/variance", "op": "Mean", "input": ["StatefulPartitionedCall/model_1/instance_normalization_3/moments/SquaredDifference", "StatefulPartitionedCall/model_1/instance_normalization_3/moments/variance/reduction_indices"], "attr": {"Tidx": {"type": "DT_INT32"}, "T": {"type": "DT_FLOAT"}, "keep_dims": {"b": true}}}, {"name": "StatefulPartitionedCall/model_1/instance_normalization_2/batchnorm/mul", "op": "Mul", "input": ["StatefulPartitionedCall/model_1/instance_normalization_2/batchnorm/Rsqrt", "StatefulPartitionedCall/model_1/instance_normalization_2/Reshape"], "attr": {"T": {"type": "DT_FLOAT"}}}, {"name": "StatefulPartitionedCall/model_1/instance_normalization_3/batchnorm/add", "op": "AddV2", "input": ["StatefulPartitionedCall/model_1/instance_normalization_3/moments/variance", "StatefulPartitionedCall/model_1/instance_normalization_3/batchnorm/add/y"], "attr": {"T": {"type": "DT_FLOAT"}}}, {"name": "StatefulPartitionedCall/model_1/instance_normalization_2/batchnorm/mul_2", "op": "Mul", "input": ["StatefulPartitionedCall/model_1/instance_normalization_2/moments/mean", "StatefulPartitionedCall/model_1/instance_normalization_2/batchnorm/mul"], "attr": {"T": {"type": "DT_FLOAT"}}}, {"name": "StatefulPartitionedCall/model_1/instance_normalization_2/batchnorm/mul_1", "op": "Mul", "input": ["StatefulPartitionedCall/model_1/conv2d_2/BiasAdd", "StatefulPartitionedCall/model_1/instance_normalization_2/batchnorm/mul"], "attr": {"T": {"type": "DT_FLOAT"}}}, {"name": "StatefulPartitionedCall/model_1/instance_normalization_3/batchnorm/Rsqrt", "op": "Rsqrt", "input": ["StatefulPartitionedCall/model_1/instance_normalization_3/batchnorm/add"], "attr": {"T": {"type": "DT_FLOAT"}}}, {"name": "StatefulPartitionedCall/model_1/instance_normalization_2/batchnorm/sub", "op": "Sub", "input": ["StatefulPartitionedCall/model_1/instance_normalization_2/Reshape_1", "StatefulPartitionedCall/model_1/instance_normalization_2/batchnorm/mul_2"], "attr": {"T": {"type": "DT_FLOAT"}}}, {"name": "StatefulPartitionedCall/model_1/instance_normalization_3/batchnorm/mul", "op": "Mul", "input": ["StatefulPartitionedCall/model_1/instance_normalization_3/batchnorm/Rsqrt", "StatefulPartitionedCall/model_1/instance_normalization_3/Reshape"], "attr": {"T": {"type": "DT_FLOAT"}}}, {"name": "StatefulPartitionedCall/model_1/instance_normalization_2/batchnorm/add_1", "op": "AddV2", "input": ["StatefulPartitionedCall/model_1/instance_normalization_2/batchnorm/mul_1", "StatefulPartitionedCall/model_1/instance_normalization_2/batchnorm/sub"], "attr": {"T": {"type": "DT_FLOAT"}}}, {"name": "StatefulPartitionedCall/model_1/instance_normalization_3/batchnorm/mul_2", "op": "Mul", "input": ["StatefulPartitionedCall/model_1/instance_normalization_3/moments/mean", "StatefulPartitionedCall/model_1/instance_normalization_3/batchnorm/mul"], "attr": {"T": {"type": "DT_FLOAT"}}}, {"name": "StatefulPartitionedCall/model_1/instance_normalization_3/batchnorm/mul_1", "op": "Mul", "input": ["StatefulPartitionedCall/model_1/conv2d_3/BiasAdd", "StatefulPartitionedCall/model_1/instance_normalization_3/batchnorm/mul"], "attr": {"T": {"type": "DT_FLOAT"}}}, {"name": "StatefulPartitionedCall/model_1/instance_normalization_3/batchnorm/sub", "op": "Sub", "input": ["StatefulPartitionedCall/model_1/instance_normalization_3/Reshape_1", "StatefulPartitionedCall/model_1/instance_normalization_3/batchnorm/mul_2"], "attr": {"T": {"type": "DT_FLOAT"}}}, {"name": "StatefulPartitionedCall/model_1/instance_normalization_3/batchnorm/add_1", "op": "AddV2", "input": ["StatefulPartitionedCall/model_1/instance_normalization_3/batchnorm/mul_1", "StatefulPartitionedCall/model_1/instance_normalization_3/batchnorm/sub"], "attr": {"T": {"type": "DT_FLOAT"}}}, {"name": "StatefulPartitionedCall/model_1/add_1/add", "op": "AddV2", "input": ["StatefulPartitionedCall/model_1/instance_normalization_2/batchnorm/add_1", "StatefulPartitionedCall/model_1/instance_normalization_3/batchnorm/add_1"], "attr": {"T": {"type": "DT_FLOAT"}}}, {"name": "StatefulPartitionedCall/model_1/activation_1/Relu", "op": "Relu", "input": ["StatefulPartitionedCall/model_1/add_1/add"], "attr": {"T": {"type": "DT_FLOAT"}}}, {"name": "StatefulPartitionedCall/model_1/conv2d_4/BiasAdd", "op": "_FusedConv2D", "input": ["StatefulPartitionedCall/model_1/activation_1/Relu", "StatefulPartitionedCall/model_1/conv2d_4/Conv2D/ReadVariableOp", "StatefulPartitionedCall/model_1/conv2d_4/BiasAdd/ReadVariableOp"], "device": "/device:CPU:0", "attr": {"fused_ops": {"list": {"s": ["Qmlhc0FkZA=="]}}, "T": {"type": "DT_FLOAT"}, "data_format": {"s": "TkhXQw=="}, "dilations": {"list": {"i": ["1", "1", "1", "1"]}}, "use_cudnn_on_gpu": {"b": true}, "explicit_paddings": {"list": {}}, "num_args": {"i": "1"}, "padding": {"s": "U0FNRQ=="}, "strides": {"list": {"i": ["1", "2", "2", "1"]}}, "epsilon": {"f": 0.0}}}, {"name": "StatefulPartitionedCall/model_1/zero_padding2d_1/Pad", "op": "Pad", "input": ["StatefulPartitionedCall/model_1/activation_1/Relu", "StatefulPartitionedCall/model_1/zero_padding2d_1/Pad/paddings"], "attr": {"T": {"type": "DT_FLOAT"}, "Tpaddings": {"type": "DT_INT32"}}}, {"name": "StatefulPartitionedCall/model_1/instance_normalization_4/moments/mean", "op": "Mean", "input": ["StatefulPartitionedCall/model_1/conv2d_4/BiasAdd", "StatefulPartitionedCall/model_1/instance_normalization_4/moments/mean/reduction_indices"], "attr": {"Tidx": {"type": "DT_INT32"}, "T": {"type": "DT_FLOAT"}, "keep_dims": {"b": true}}}, {"name": "StatefulPartitionedCall/model_1/average_pooling2d_1/AvgPool", "op": "AvgPool", "input": ["StatefulPartitionedCall/model_1/zero_padding2d_1/Pad"], "attr": {"padding": {"s": "VkFMSUQ="}, "data_format": {"s": "TkhXQw=="}, "strides": {"list": {"i": ["1", "2", "2", "1"]}}, "T": {"type": "DT_FLOAT"}, "ksize": {"list": {"i": ["1", "2", "2", "1"]}}}}, {"name": "StatefulPartitionedCall/model_1/instance_normalization_4/moments/SquaredDifference", "op": "SquaredDifference", "input": ["StatefulPartitionedCall/model_1/conv2d_4/BiasAdd", "StatefulPartitionedCall/model_1/instance_normalization_4/moments/mean"], "attr": {"T": {"type": "DT_FLOAT"}}}, {"name": "StatefulPartitionedCall/model_1/conv2d_5/BiasAdd", "op": "_FusedConv2D", "input": ["StatefulPartitionedCall/model_1/average_pooling2d_1/AvgPool", "StatefulPartitionedCall/model_1/conv2d_5/Conv2D/ReadVariableOp", "StatefulPartitionedCall/model_1/conv2d_5/BiasAdd/ReadVariableOp"], "device": "/device:CPU:0", "attr": {"fused_ops": {"list": {"s": ["Qmlhc0FkZA=="]}}, "explicit_paddings": {"list": {}}, "epsilon": {"f": 0.0}, "dilations": {"list": {"i": ["1", "1", "1", "1"]}}, "data_format": {"s": "TkhXQw=="}, "strides": {"list": {"i": ["1", "1", "1", "1"]}}, "padding": {"s": "U0FNRQ=="}, "use_cudnn_on_gpu": {"b": true}, "num_args": {"i": "1"}, "T": {"type": "DT_FLOAT"}}}, {"name": "StatefulPartitionedCall/model_1/instance_normalization_4/moments/variance", "op": "Mean", "input": ["StatefulPartitionedCall/model_1/instance_normalization_4/moments/SquaredDifference", "StatefulPartitionedCall/model_1/instance_normalization_4/moments/variance/reduction_indices"], "attr": {"Tidx": {"type": "DT_INT32"}, "keep_dims": {"b": true}, "T": {"type": "DT_FLOAT"}}}, {"name": "StatefulPartitionedCall/model_1/instance_normalization_5/moments/mean", "op": "Mean", "input": ["StatefulPartitionedCall/model_1/conv2d_5/BiasAdd", "StatefulPartitionedCall/model_1/instance_normalization_5/moments/mean/reduction_indices"], "attr": {"keep_dims": {"b": true}, "Tidx": {"type": "DT_INT32"}, "T": {"type": "DT_FLOAT"}}}, {"name": "StatefulPartitionedCall/model_1/instance_normalization_4/batchnorm/add", "op": "AddV2", "input": ["StatefulPartitionedCall/model_1/instance_normalization_4/moments/variance", "StatefulPartitionedCall/model_1/instance_normalization_4/batchnorm/add/y"], "attr": {"T": {"type": "DT_FLOAT"}}}, {"name": "StatefulPartitionedCall/model_1/instance_normalization_5/moments/SquaredDifference", "op": "SquaredDifference", "input": ["StatefulPartitionedCall/model_1/conv2d_5/BiasAdd", "StatefulPartitionedCall/model_1/instance_normalization_5/moments/mean"], "attr": {"T": {"type": "DT_FLOAT"}}}, {"name": "StatefulPartitionedCall/model_1/instance_normalization_4/batchnorm/Rsqrt", "op": "Rsqrt", "input": ["StatefulPartitionedCall/model_1/instance_normalization_4/batchnorm/add"], "attr": {"T": {"type": "DT_FLOAT"}}}, {"name": "StatefulPartitionedCall/model_1/instance_normalization_5/moments/variance", "op": "Mean", "input": ["StatefulPartitionedCall/model_1/instance_normalization_5/moments/SquaredDifference", "StatefulPartitionedCall/model_1/instance_normalization_5/moments/variance/reduction_indices"], "attr": {"Tidx": {"type": "DT_INT32"}, "keep_dims": {"b": true}, "T": {"type": "DT_FLOAT"}}}, {"name": "StatefulPartitionedCall/model_1/instance_normalization_4/batchnorm/mul", "op": "Mul", "input": ["StatefulPartitionedCall/model_1/instance_normalization_4/batchnorm/Rsqrt", "StatefulPartitionedCall/model_1/instance_normalization_4/Reshape"], "attr": {"T": {"type": "DT_FLOAT"}}}, {"name": "StatefulPartitionedCall/model_1/instance_normalization_5/batchnorm/add", "op": "AddV2", "input": ["StatefulPartitionedCall/model_1/instance_normalization_5/moments/variance", "StatefulPartitionedCall/model_1/instance_normalization_5/batchnorm/add/y"], "attr": {"T": {"type": "DT_FLOAT"}}}, {"name": "StatefulPartitionedCall/model_1/instance_normalization_4/batchnorm/mul_2", "op": "Mul", "input": ["StatefulPartitionedCall/model_1/instance_normalization_4/moments/mean", "StatefulPartitionedCall/model_1/instance_normalization_4/batchnorm/mul"], "attr": {"T": {"type": "DT_FLOAT"}}}, {"name": "StatefulPartitionedCall/model_1/instance_normalization_4/batchnorm/mul_1", "op": "Mul", "input": ["StatefulPartitionedCall/model_1/conv2d_4/BiasAdd", "StatefulPartitionedCall/model_1/instance_normalization_4/batchnorm/mul"], "attr": {"T": {"type": "DT_FLOAT"}}}, {"name": "StatefulPartitionedCall/model_1/instance_normalization_5/batchnorm/Rsqrt", "op": "Rsqrt", "input": ["StatefulPartitionedCall/model_1/instance_normalization_5/batchnorm/add"], "attr": {"T": {"type": "DT_FLOAT"}}}, {"name": "StatefulPartitionedCall/model_1/instance_normalization_4/batchnorm/sub", "op": "Sub", "input": ["StatefulPartitionedCall/model_1/instance_normalization_4/Reshape_1", "StatefulPartitionedCall/model_1/instance_normalization_4/batchnorm/mul_2"], "attr": {"T": {"type": "DT_FLOAT"}}}, {"name": "StatefulPartitionedCall/model_1/instance_normalization_5/batchnorm/mul", "op": "Mul", "input": ["StatefulPartitionedCall/model_1/instance_normalization_5/batchnorm/Rsqrt", "StatefulPartitionedCall/model_1/instance_normalization_5/Reshape"], "attr": {"T": {"type": "DT_FLOAT"}}}, {"name": "StatefulPartitionedCall/model_1/instance_normalization_4/batchnorm/add_1", "op": "AddV2", "input": ["StatefulPartitionedCall/model_1/instance_normalization_4/batchnorm/mul_1", "StatefulPartitionedCall/model_1/instance_normalization_4/batchnorm/sub"], "attr": {"T": {"type": "DT_FLOAT"}}}, {"name": "StatefulPartitionedCall/model_1/instance_normalization_5/batchnorm/mul_2", "op": "Mul", "input": ["StatefulPartitionedCall/model_1/instance_normalization_5/moments/mean", "StatefulPartitionedCall/model_1/instance_normalization_5/batchnorm/mul"], "attr": {"T": {"type": "DT_FLOAT"}}}, {"name": "StatefulPartitionedCall/model_1/instance_normalization_5/batchnorm/mul_1", "op": "Mul", "input": ["StatefulPartitionedCall/model_1/conv2d_5/BiasAdd", "StatefulPartitionedCall/model_1/instance_normalization_5/batchnorm/mul"], "attr": {"T": {"type": "DT_FLOAT"}}}, {"name": "StatefulPartitionedCall/model_1/instance_normalization_5/batchnorm/sub", "op": "Sub", "input": ["StatefulPartitionedCall/model_1/instance_normalization_5/Reshape_1", "StatefulPartitionedCall/model_1/instance_normalization_5/batchnorm/mul_2"], "attr": {"T": {"type": "DT_FLOAT"}}}, {"name": "StatefulPartitionedCall/model_1/instance_normalization_5/batchnorm/add_1", "op": "AddV2", "input": ["StatefulPartitionedCall/model_1/instance_normalization_5/batchnorm/mul_1", "StatefulPartitionedCall/model_1/instance_normalization_5/batchnorm/sub"], "attr": {"T": {"type": "DT_FLOAT"}}}, {"name": "StatefulPartitionedCall/model_1/add_2/add", "op": "AddV2", "input": ["StatefulPartitionedCall/model_1/instance_normalization_4/batchnorm/add_1", "StatefulPartitionedCall/model_1/instance_normalization_5/batchnorm/add_1"], "attr": {"T": {"type": "DT_FLOAT"}}}, {"name": "StatefulPartitionedCall/model_1/activation_2/Relu", "op": "Relu", "input": ["StatefulPartitionedCall/model_1/add_2/add"], "attr": {"T": {"type": "DT_FLOAT"}}}, {"name": "StatefulPartitionedCall/model_1/conv2d_6/BiasAdd", "op": "_FusedConv2D", "input": ["StatefulPartitionedCall/model_1/activation_2/Relu", "StatefulPartitionedCall/model_1/conv2d_6/Conv2D/ReadVariableOp", "StatefulPartitionedCall/model_1/conv2d_6/BiasAdd/ReadVariableOp"], "device": "/device:CPU:0", "attr": {"explicit_paddings": {"list": {}}, "data_format": {"s": "TkhXQw=="}, "strides": {"list": {"i": ["1", "2", "2", "1"]}}, "padding": {"s": "U0FNRQ=="}, "epsilon": {"f": 0.0}, "num_args": {"i": "1"}, "use_cudnn_on_gpu": {"b": true}, "fused_ops": {"list": {"s": ["Qmlhc0FkZA=="]}}, "T": {"type": "DT_FLOAT"}, "dilations": {"list": {"i": ["1", "1", "1", "1"]}}}}, {"name": "StatefulPartitionedCall/model_1/zero_padding2d_2/Pad", "op": "Pad", "input": ["StatefulPartitionedCall/model_1/activation_2/Relu", "StatefulPartitionedCall/model_1/zero_padding2d_2/Pad/paddings"], "attr": {"T": {"type": "DT_FLOAT"}, "Tpaddings": {"type": "DT_INT32"}}}, {"name": "StatefulPartitionedCall/model_1/instance_normalization_6/moments/mean", "op": "Mean", "input": ["StatefulPartitionedCall/model_1/conv2d_6/BiasAdd", "StatefulPartitionedCall/model_1/instance_normalization_6/moments/mean/reduction_indices"], "attr": {"T": {"type": "DT_FLOAT"}, "keep_dims": {"b": true}, "Tidx": {"type": "DT_INT32"}}}, {"name": "StatefulPartitionedCall/model_1/average_pooling2d_2/AvgPool", "op": "AvgPool", "input": ["StatefulPartitionedCall/model_1/zero_padding2d_2/Pad"], "attr": {"data_format": {"s": "TkhXQw=="}, "T": {"type": "DT_FLOAT"}, "strides": {"list": {"i": ["1", "2", "2", "1"]}}, "ksize": {"list": {"i": ["1", "2", "2", "1"]}}, "padding": {"s": "VkFMSUQ="}}}, {"name": "StatefulPartitionedCall/model_1/instance_normalization_6/moments/SquaredDifference", "op": "SquaredDifference", "input": ["StatefulPartitionedCall/model_1/conv2d_6/BiasAdd", "StatefulPartitionedCall/model_1/instance_normalization_6/moments/mean"], "attr": {"T": {"type": "DT_FLOAT"}}}, {"name": "StatefulPartitionedCall/model_1/conv2d_7/BiasAdd", "op": "_FusedConv2D", "input": ["StatefulPartitionedCall/model_1/average_pooling2d_2/AvgPool", "StatefulPartitionedCall/model_1/conv2d_7/Conv2D/ReadVariableOp", "StatefulPartitionedCall/model_1/conv2d_7/BiasAdd/ReadVariableOp"], "device": "/device:CPU:0", "attr": {"dilations": {"list": {"i": ["1", "1", "1", "1"]}}, "strides": {"list": {"i": ["1", "1", "1", "1"]}}, "use_cudnn_on_gpu": {"b": true}, "num_args": {"i": "1"}, "epsilon": {"f": 0.0}, "padding": {"s": "U0FNRQ=="}, "data_format": {"s": "TkhXQw=="}, "T": {"type": "DT_FLOAT"}, "explicit_paddings": {"list": {}}, "fused_ops": {"list": {"s": ["Qmlhc0FkZA=="]}}}}, {"name": "StatefulPartitionedCall/model_1/instance_normalization_6/moments/variance", "op": "Mean", "input": ["StatefulPartitionedCall/model_1/instance_normalization_6/moments/SquaredDifference", "StatefulPartitionedCall/model_1/instance_normalization_6/moments/variance/reduction_indices"], "attr": {"Tidx": {"type": "DT_INT32"}, "keep_dims": {"b": true}, "T": {"type": "DT_FLOAT"}}}, {"name": "StatefulPartitionedCall/model_1/instance_normalization_7/moments/mean", "op": "Mean", "input": ["StatefulPartitionedCall/model_1/conv2d_7/BiasAdd", "StatefulPartitionedCall/model_1/instance_normalization_7/moments/mean/reduction_indices"], "attr": {"Tidx": {"type": "DT_INT32"}, "T": {"type": "DT_FLOAT"}, "keep_dims": {"b": true}}}, {"name": "StatefulPartitionedCall/model_1/instance_normalization_6/batchnorm/add", "op": "AddV2", "input": ["StatefulPartitionedCall/model_1/instance_normalization_6/moments/variance", "StatefulPartitionedCall/model_1/instance_normalization_6/batchnorm/add/y"], "attr": {"T": {"type": "DT_FLOAT"}}}, {"name": "StatefulPartitionedCall/model_1/instance_normalization_7/moments/SquaredDifference", "op": "SquaredDifference", "input": ["StatefulPartitionedCall/model_1/conv2d_7/BiasAdd", "StatefulPartitionedCall/model_1/instance_normalization_7/moments/mean"], "attr": {"T": {"type": "DT_FLOAT"}}}, {"name": "StatefulPartitionedCall/model_1/instance_normalization_6/batchnorm/Rsqrt", "op": "Rsqrt", "input": ["StatefulPartitionedCall/model_1/instance_normalization_6/batchnorm/add"], "attr": {"T": {"type": "DT_FLOAT"}}}, {"name": "StatefulPartitionedCall/model_1/instance_normalization_7/moments/variance", "op": "Mean", "input": ["StatefulPartitionedCall/model_1/instance_normalization_7/moments/SquaredDifference", "StatefulPartitionedCall/model_1/instance_normalization_7/moments/variance/reduction_indices"], "attr": {"T": {"type": "DT_FLOAT"}, "keep_dims": {"b": true}, "Tidx": {"type": "DT_INT32"}}}, {"name": "StatefulPartitionedCall/model_1/instance_normalization_6/batchnorm/mul", "op": "Mul", "input": ["StatefulPartitionedCall/model_1/instance_normalization_6/batchnorm/Rsqrt", "StatefulPartitionedCall/model_1/instance_normalization_6/Reshape"], "attr": {"T": {"type": "DT_FLOAT"}}}, {"name": "StatefulPartitionedCall/model_1/instance_normalization_7/batchnorm/add", "op": "AddV2", "input": ["StatefulPartitionedCall/model_1/instance_normalization_7/moments/variance", "StatefulPartitionedCall/model_1/instance_normalization_7/batchnorm/add/y"], "attr": {"T": {"type": "DT_FLOAT"}}}, {"name": "StatefulPartitionedCall/model_1/instance_normalization_6/batchnorm/mul_2", "op": "Mul", "input": ["StatefulPartitionedCall/model_1/instance_normalization_6/moments/mean", "StatefulPartitionedCall/model_1/instance_normalization_6/batchnorm/mul"], "attr": {"T": {"type": "DT_FLOAT"}}}, {"name": "StatefulPartitionedCall/model_1/instance_normalization_6/batchnorm/mul_1", "op": "Mul", "input": ["StatefulPartitionedCall/model_1/conv2d_6/BiasAdd", "StatefulPartitionedCall/model_1/instance_normalization_6/batchnorm/mul"], "attr": {"T": {"type": "DT_FLOAT"}}}, {"name": "StatefulPartitionedCall/model_1/instance_normalization_7/batchnorm/Rsqrt", "op": "Rsqrt", "input": ["StatefulPartitionedCall/model_1/instance_normalization_7/batchnorm/add"], "attr": {"T": {"type": "DT_FLOAT"}}}, {"name": "StatefulPartitionedCall/model_1/instance_normalization_6/batchnorm/sub", "op": "Sub", "input": ["StatefulPartitionedCall/model_1/instance_normalization_6/Reshape_1", "StatefulPartitionedCall/model_1/instance_normalization_6/batchnorm/mul_2"], "attr": {"T": {"type": "DT_FLOAT"}}}, {"name": "StatefulPartitionedCall/model_1/instance_normalization_7/batchnorm/mul", "op": "Mul", "input": ["StatefulPartitionedCall/model_1/instance_normalization_7/batchnorm/Rsqrt", "StatefulPartitionedCall/model_1/instance_normalization_7/Reshape"], "attr": {"T": {"type": "DT_FLOAT"}}}, {"name": "StatefulPartitionedCall/model_1/instance_normalization_6/batchnorm/add_1", "op": "AddV2", "input": ["StatefulPartitionedCall/model_1/instance_normalization_6/batchnorm/mul_1", "StatefulPartitionedCall/model_1/instance_normalization_6/batchnorm/sub"], "attr": {"T": {"type": "DT_FLOAT"}}}, {"name": "StatefulPartitionedCall/model_1/instance_normalization_7/batchnorm/mul_2", "op": "Mul", "input": ["StatefulPartitionedCall/model_1/instance_normalization_7/moments/mean", "StatefulPartitionedCall/model_1/instance_normalization_7/batchnorm/mul"], "attr": {"T": {"type": "DT_FLOAT"}}}, {"name": "StatefulPartitionedCall/model_1/instance_normalization_7/batchnorm/mul_1", "op": "Mul", "input": ["StatefulPartitionedCall/model_1/conv2d_7/BiasAdd", "StatefulPartitionedCall/model_1/instance_normalization_7/batchnorm/mul"], "attr": {"T": {"type": "DT_FLOAT"}}}, {"name": "StatefulPartitionedCall/model_1/instance_normalization_7/batchnorm/sub", "op": "Sub", "input": ["StatefulPartitionedCall/model_1/instance_normalization_7/Reshape_1", "StatefulPartitionedCall/model_1/instance_normalization_7/batchnorm/mul_2"], "attr": {"T": {"type": "DT_FLOAT"}}}, {"name": "StatefulPartitionedCall/model_1/instance_normalization_7/batchnorm/add_1", "op": "AddV2", "input": ["StatefulPartitionedCall/model_1/instance_normalization_7/batchnorm/mul_1", "StatefulPartitionedCall/model_1/instance_normalization_7/batchnorm/sub"], "attr": {"T": {"type": "DT_FLOAT"}}}, {"name": "StatefulPartitionedCall/model_1/add_3/add", "op": "AddV2", "input": ["StatefulPartitionedCall/model_1/instance_normalization_6/batchnorm/add_1", "StatefulPartitionedCall/model_1/instance_normalization_7/batchnorm/add_1"], "attr": {"T": {"type": "DT_FLOAT"}}}, {"name": "StatefulPartitionedCall/model_1/activation_3/Relu", "op": "Relu", "input": ["StatefulPartitionedCall/model_1/add_3/add"], "attr": {"T": {"type": "DT_FLOAT"}}}, {"name": "StatefulPartitionedCall/model_1/conv2d_8/BiasAdd", "op": "_FusedConv2D", "input": ["StatefulPartitionedCall/model_1/activation_3/Relu", "StatefulPartitionedCall/model_1/conv2d_8/Conv2D/ReadVariableOp", "StatefulPartitionedCall/model_1/conv2d_8/BiasAdd/ReadVariableOp"], "device": "/device:CPU:0", "attr": {"padding": {"s": "U0FNRQ=="}, "epsilon": {"f": 0.0}, "use_cudnn_on_gpu": {"b": true}, "strides": {"list": {"i": ["1", "1", "1", "1"]}}, "num_args": {"i": "1"}, "T": {"type": "DT_FLOAT"}, "data_format": {"s": "TkhXQw=="}, "dilations": {"list": {"i": ["1", "1", "1", "1"]}}, "explicit_paddings": {"list": {}}, "fused_ops": {"list": {"s": ["Qmlhc0FkZA=="]}}}}, {"name": "StatefulPartitionedCall/model_1/instance_normalization_8/moments/mean", "op": "Mean", "input": ["StatefulPartitionedCall/model_1/conv2d_8/BiasAdd", "StatefulPartitionedCall/model_1/instance_normalization_8/moments/mean/reduction_indices"], "attr": {"keep_dims": {"b": true}, "T": {"type": "DT_FLOAT"}, "Tidx": {"type": "DT_INT32"}}}, {"name": "StatefulPartitionedCall/model_1/instance_normalization_8/moments/SquaredDifference", "op": "SquaredDifference", "input": ["StatefulPartitionedCall/model_1/conv2d_8/BiasAdd", "StatefulPartitionedCall/model_1/instance_normalization_8/moments/mean"], "attr": {"T": {"type": "DT_FLOAT"}}}, {"name": "StatefulPartitionedCall/model_1/instance_normalization_8/moments/variance", "op": "Mean", "input": ["StatefulPartitionedCall/model_1/instance_normalization_8/moments/SquaredDifference", "StatefulPartitionedCall/model_1/instance_normalization_8/moments/variance/reduction_indices"], "attr": {"Tidx": {"type": "DT_INT32"}, "T": {"type": "DT_FLOAT"}, "keep_dims": {"b": true}}}, {"name": "StatefulPartitionedCall/model_1/instance_normalization_8/batchnorm/add", "op": "AddV2", "input": ["StatefulPartitionedCall/model_1/instance_normalization_8/moments/variance", "StatefulPartitionedCall/model_1/instance_normalization_8/batchnorm/add/y"], "attr": {"T": {"type": "DT_FLOAT"}}}, {"name": "StatefulPartitionedCall/model_1/instance_normalization_8/batchnorm/Rsqrt", "op": "Rsqrt", "input": ["StatefulPartitionedCall/model_1/instance_normalization_8/batchnorm/add"], "attr": {"T": {"type": "DT_FLOAT"}}}, {"name": "StatefulPartitionedCall/model_1/instance_normalization_8/batchnorm/mul", "op": "Mul", "input": ["StatefulPartitionedCall/model_1/instance_normalization_8/batchnorm/Rsqrt", "StatefulPartitionedCall/model_1/instance_normalization_8/Reshape"], "attr": {"T": {"type": "DT_FLOAT"}}}, {"name": "StatefulPartitionedCall/model_1/instance_normalization_8/batchnorm/mul_2", "op": "Mul", "input": ["StatefulPartitionedCall/model_1/instance_normalization_8/moments/mean", "StatefulPartitionedCall/model_1/instance_normalization_8/batchnorm/mul"], "attr": {"T": {"type": "DT_FLOAT"}}}, {"name": "StatefulPartitionedCall/model_1/instance_normalization_8/batchnorm/mul_1", "op": "Mul", "input": ["StatefulPartitionedCall/model_1/conv2d_8/BiasAdd", "StatefulPartitionedCall/model_1/instance_normalization_8/batchnorm/mul"], "attr": {"T": {"type": "DT_FLOAT"}}}, {"name": "StatefulPartitionedCall/model_1/instance_normalization_8/batchnorm/sub", "op": "Sub", "input": ["StatefulPartitionedCall/model_1/instance_normalization_8/Reshape_1", "StatefulPartitionedCall/model_1/instance_normalization_8/batchnorm/mul_2"], "attr": {"T": {"type": "DT_FLOAT"}}}, {"name": "StatefulPartitionedCall/model_1/add_4/ArithmeticOptimizer/AddOpsRewrite_Leaf_1_add", "op": "AddN", "input": ["StatefulPartitionedCall/model_1/instance_normalization_8/batchnorm/mul_1", "StatefulPartitionedCall/model_1/activation_3/Relu"], "attr": {"N": {"i": "2"}, "T": {"type": "DT_FLOAT"}, "_grappler_ArithmeticOptimizer_AddOpsRewriteStage": {"b": true}}}, {"name": "StatefulPartitionedCall/model_1/add_4/ArithmeticOptimizer/AddOpsRewrite_add", "op": "AddV2", "input": ["StatefulPartitionedCall/model_1/instance_normalization_8/batchnorm/sub", "StatefulPartitionedCall/model_1/add_4/ArithmeticOptimizer/AddOpsRewrite_Leaf_1_add"], "attr": {"T": {"type": "DT_FLOAT"}, "_grappler_ArithmeticOptimizer_AddOpsRewriteStage": {"b": true}}}, {"name": "StatefulPartitionedCall/model_1/activation_4/Relu", "op": "Relu", "input": ["StatefulPartitionedCall/model_1/add_4/ArithmeticOptimizer/AddOpsRewrite_add"], "attr": {"T": {"type": "DT_FLOAT"}}}, {"name": "StatefulPartitionedCall/model_1/conv2d_9/BiasAdd", "op": "_FusedConv2D", "input": ["StatefulPartitionedCall/model_1/activation_4/Relu", "StatefulPartitionedCall/model_1/conv2d_9/Conv2D/ReadVariableOp", "StatefulPartitionedCall/model_1/conv2d_9/BiasAdd/ReadVariableOp"], "device": "/device:CPU:0", "attr": {"padding": {"s": "U0FNRQ=="}, "dilations": {"list": {"i": ["1", "1", "1", "1"]}}, "fused_ops": {"list": {"s": ["Qmlhc0FkZA=="]}}, "data_format": {"s": "TkhXQw=="}, "T": {"type": "DT_FLOAT"}, "epsilon": {"f": 0.0}, "num_args": {"i": "1"}, "use_cudnn_on_gpu": {"b": true}, "strides": {"list": {"i": ["1", "1", "1", "1"]}}, "explicit_paddings": {"list": {}}}}, {"name": "StatefulPartitionedCall/model_1/instance_normalization_9/moments/mean", "op": "Mean", "input": ["StatefulPartitionedCall/model_1/conv2d_9/BiasAdd", "StatefulPartitionedCall/model_1/instance_normalization_9/moments/mean/reduction_indices"], "attr": {"Tidx": {"type": "DT_INT32"}, "T": {"type": "DT_FLOAT"}, "keep_dims": {"b": true}}}, {"name": "StatefulPartitionedCall/model_1/instance_normalization_9/moments/SquaredDifference", "op": "SquaredDifference", "input": ["StatefulPartitionedCall/model_1/conv2d_9/BiasAdd", "StatefulPartitionedCall/model_1/instance_normalization_9/moments/mean"], "attr": {"T": {"type": "DT_FLOAT"}}}, {"name": "StatefulPartitionedCall/model_1/instance_normalization_9/moments/variance", "op": "Mean", "input": ["StatefulPartitionedCall/model_1/instance_normalization_9/moments/SquaredDifference", "StatefulPartitionedCall/model_1/instance_normalization_9/moments/variance/reduction_indices"], "attr": {"T": {"type": "DT_FLOAT"}, "Tidx": {"type": "DT_INT32"}, "keep_dims": {"b": true}}}, {"name": "StatefulPartitionedCall/model_1/instance_normalization_9/batchnorm/add", "op": "AddV2", "input": ["StatefulPartitionedCall/model_1/instance_normalization_9/moments/variance", "StatefulPartitionedCall/model_1/instance_normalization_9/batchnorm/add/y"], "attr": {"T": {"type": "DT_FLOAT"}}}, {"name": "StatefulPartitionedCall/model_1/instance_normalization_9/batchnorm/Rsqrt", "op": "Rsqrt", "input": ["StatefulPartitionedCall/model_1/instance_normalization_9/batchnorm/add"], "attr": {"T": {"type": "DT_FLOAT"}}}, {"name": "StatefulPartitionedCall/model_1/instance_normalization_9/batchnorm/mul", "op": "Mul", "input": ["StatefulPartitionedCall/model_1/instance_normalization_9/batchnorm/Rsqrt", "StatefulPartitionedCall/model_1/instance_normalization_9/Reshape"], "attr": {"T": {"type": "DT_FLOAT"}}}, {"name": "StatefulPartitionedCall/model_1/instance_normalization_9/batchnorm/mul_2", "op": "Mul", "input": ["StatefulPartitionedCall/model_1/instance_normalization_9/moments/mean", "StatefulPartitionedCall/model_1/instance_normalization_9/batchnorm/mul"], "attr": {"T": {"type": "DT_FLOAT"}}}, {"name": "StatefulPartitionedCall/model_1/instance_normalization_9/batchnorm/mul_1", "op": "Mul", "input": ["StatefulPartitionedCall/model_1/conv2d_9/BiasAdd", "StatefulPartitionedCall/model_1/instance_normalization_9/batchnorm/mul"], "attr": {"T": {"type": "DT_FLOAT"}}}, {"name": "StatefulPartitionedCall/model_1/instance_normalization_9/batchnorm/sub", "op": "Sub", "input": ["StatefulPartitionedCall/model_1/instance_normalization_9/Reshape_1", "StatefulPartitionedCall/model_1/instance_normalization_9/batchnorm/mul_2"], "attr": {"T": {"type": "DT_FLOAT"}}}, {"name": "StatefulPartitionedCall/model_1/add_5/ArithmeticOptimizer/AddOpsRewrite_Leaf_1_add", "op": "AddN", "input": ["StatefulPartitionedCall/model_1/instance_normalization_9/batchnorm/mul_1", "StatefulPartitionedCall/model_1/activation_4/Relu"], "attr": {"T": {"type": "DT_FLOAT"}, "_grappler_ArithmeticOptimizer_AddOpsRewriteStage": {"b": true}, "N": {"i": "2"}}}, {"name": "StatefulPartitionedCall/model_1/add_5/ArithmeticOptimizer/AddOpsRewrite_add", "op": "AddV2", "input": ["StatefulPartitionedCall/model_1/instance_normalization_9/batchnorm/sub", "StatefulPartitionedCall/model_1/add_5/ArithmeticOptimizer/AddOpsRewrite_Leaf_1_add"], "attr": {"_grappler_ArithmeticOptimizer_AddOpsRewriteStage": {"b": true}, "T": {"type": "DT_FLOAT"}}}, {"name": "StatefulPartitionedCall/model_1/activation_5/Relu", "op": "Relu", "input": ["StatefulPartitionedCall/model_1/add_5/ArithmeticOptimizer/AddOpsRewrite_add"], "attr": {"T": {"type": "DT_FLOAT"}}}, {"name": "StatefulPartitionedCall/model_1/conv2d_10/BiasAdd", "op": "_FusedConv2D", "input": ["StatefulPartitionedCall/model_1/activation_5/Relu", "StatefulPartitionedCall/model_1/conv2d_10/Conv2D/ReadVariableOp", "StatefulPartitionedCall/model_1/conv2d_10/BiasAdd/ReadVariableOp"], "device": "/device:CPU:0", "attr": {"padding": {"s": "U0FNRQ=="}, "fused_ops": {"list": {"s": ["Qmlhc0FkZA=="]}}, "num_args": {"i": "1"}, "T": {"type": "DT_FLOAT"}, "explicit_paddings": {"list": {}}, "dilations": {"list": {"i": ["1", "1", "1", "1"]}}, "use_cudnn_on_gpu": {"b": true}, "data_format": {"s": "TkhXQw=="}, "strides": {"list": {"i": ["1", "1", "1", "1"]}}, "epsilon": {"f": 0.0}}}, {"name": "StatefulPartitionedCall/model_1/instance_normalization_10/moments/mean", "op": "Mean", "input": ["StatefulPartitionedCall/model_1/conv2d_10/BiasAdd", "StatefulPartitionedCall/model_1/instance_normalization_10/moments/mean/reduction_indices"], "attr": {"Tidx": {"type": "DT_INT32"}, "T": {"type": "DT_FLOAT"}, "keep_dims": {"b": true}}}, {"name": "StatefulPartitionedCall/model_1/instance_normalization_10/moments/SquaredDifference", "op": "SquaredDifference", "input": ["StatefulPartitionedCall/model_1/conv2d_10/BiasAdd", "StatefulPartitionedCall/model_1/instance_normalization_10/moments/mean"], "attr": {"T": {"type": "DT_FLOAT"}}}, {"name": "StatefulPartitionedCall/model_1/instance_normalization_10/moments/variance", "op": "Mean", "input": ["StatefulPartitionedCall/model_1/instance_normalization_10/moments/SquaredDifference", "StatefulPartitionedCall/model_1/instance_normalization_10/moments/variance/reduction_indices"], "attr": {"Tidx": {"type": "DT_INT32"}, "keep_dims": {"b": true}, "T": {"type": "DT_FLOAT"}}}, {"name": "StatefulPartitionedCall/model_1/instance_normalization_10/batchnorm/add", "op": "AddV2", "input": ["StatefulPartitionedCall/model_1/instance_normalization_10/moments/variance", "StatefulPartitionedCall/model_1/instance_normalization_10/batchnorm/add/y"], "attr": {"T": {"type": "DT_FLOAT"}}}, {"name": "StatefulPartitionedCall/model_1/instance_normalization_10/batchnorm/Rsqrt", "op": "Rsqrt", "input": ["StatefulPartitionedCall/model_1/instance_normalization_10/batchnorm/add"], "attr": {"T": {"type": "DT_FLOAT"}}}, {"name": "StatefulPartitionedCall/model_1/instance_normalization_10/batchnorm/mul", "op": "Mul", "input": ["StatefulPartitionedCall/model_1/instance_normalization_10/batchnorm/Rsqrt", "StatefulPartitionedCall/model_1/instance_normalization_10/Reshape"], "attr": {"T": {"type": "DT_FLOAT"}}}, {"name": "StatefulPartitionedCall/model_1/instance_normalization_10/batchnorm/mul_2", "op": "Mul", "input": ["StatefulPartitionedCall/model_1/instance_normalization_10/moments/mean", "StatefulPartitionedCall/model_1/instance_normalization_10/batchnorm/mul"], "attr": {"T": {"type": "DT_FLOAT"}}}, {"name": "StatefulPartitionedCall/model_1/instance_normalization_10/batchnorm/mul_1", "op": "Mul", "input": ["StatefulPartitionedCall/model_1/conv2d_10/BiasAdd", "StatefulPartitionedCall/model_1/instance_normalization_10/batchnorm/mul"], "attr": {"T": {"type": "DT_FLOAT"}}}, {"name": "StatefulPartitionedCall/model_1/instance_normalization_10/batchnorm/sub", "op": "Sub", "input": ["StatefulPartitionedCall/model_1/instance_normalization_10/Reshape_1", "StatefulPartitionedCall/model_1/instance_normalization_10/batchnorm/mul_2"], "attr": {"T": {"type": "DT_FLOAT"}}}, {"name": "StatefulPartitionedCall/model_1/add_6/ArithmeticOptimizer/AddOpsRewrite_Leaf_1_add", "op": "AddN", "input": ["StatefulPartitionedCall/model_1/instance_normalization_10/batchnorm/mul_1", "StatefulPartitionedCall/model_1/activation_5/Relu"], "attr": {"T": {"type": "DT_FLOAT"}, "N": {"i": "2"}, "_grappler_ArithmeticOptimizer_AddOpsRewriteStage": {"b": true}}}, {"name": "StatefulPartitionedCall/model_1/add_6/ArithmeticOptimizer/AddOpsRewrite_add", "op": "AddV2", "input": ["StatefulPartitionedCall/model_1/instance_normalization_10/batchnorm/sub", "StatefulPartitionedCall/model_1/add_6/ArithmeticOptimizer/AddOpsRewrite_Leaf_1_add"], "attr": {"_grappler_ArithmeticOptimizer_AddOpsRewriteStage": {"b": true}, "T": {"type": "DT_FLOAT"}}}, {"name": "StatefulPartitionedCall/model_1/activation_6/Relu", "op": "Relu", "input": ["StatefulPartitionedCall/model_1/add_6/ArithmeticOptimizer/AddOpsRewrite_add"], "attr": {"T": {"type": "DT_FLOAT"}}}, {"name": "StatefulPartitionedCall/model_1/lambda/Shape", "op": "Shape", "input": ["StatefulPartitionedCall/model_1/activation_6/Relu"], "attr": {"T": {"type": "DT_FLOAT"}, "out_type": {"type": "DT_INT32"}}}, {"name": "StatefulPartitionedCall/model_1/lambda/strided_slice", "op": "StridedSlice", "input": ["StatefulPartitionedCall/model_1/lambda/Shape", "StatefulPartitionedCall/model_1/lambda/strided_slice/stack", "StatefulPartitionedCall/model_1/lambda/strided_slice/stack_1", "StatefulPartitionedCall/model_1/lambda/strided_slice/stack_2"], "attr": {"ellipsis_mask": {"i": "0"}, "new_axis_mask": {"i": "0"}, "Index": {"type": "DT_INT32"}, "shrink_axis_mask": {"i": "1"}, "T": {"type": "DT_INT32"}, "end_mask": {"i": "0"}, "begin_mask": {"i": "0"}}}, {"name": "StatefulPartitionedCall/model_1/lambda/strided_slice_1", "op": "StridedSlice", "input": ["StatefulPartitionedCall/model_1/lambda/Shape", "StatefulPartitionedCall/model_1/lambda/strided_slice_1/stack", "StatefulPartitionedCall/model_1/lambda/strided_slice_1/stack_1", "StatefulPartitionedCall/model_1/lambda/strided_slice_1/stack_2"], "attr": {"begin_mask": {"i": "0"}, "Index": {"type": "DT_INT32"}, "new_axis_mask": {"i": "0"}, "T": {"type": "DT_INT32"}, "end_mask": {"i": "0"}, "shrink_axis_mask": {"i": "1"}, "ellipsis_mask": {"i": "0"}}}, {"name": "StatefulPartitionedCall/model_1/lambda/mul", "op": "Mul", "input": ["StatefulPartitionedCall/model_1/lambda/mul/x", "StatefulPartitionedCall/model_1/lambda/strided_slice"], "attr": {"T": {"type": "DT_INT32"}}}, {"name": "StatefulPartitionedCall/model_1/lambda/mul_1", "op": "Mul", "input": ["StatefulPartitionedCall/model_1/lambda/mul_1/x", "StatefulPartitionedCall/model_1/lambda/strided_slice_1"], "attr": {"T": {"type": "DT_INT32"}}}, {"name": "StatefulPartitionedCall/model_1/lambda/resize/size", "op": "Pack", "input": ["StatefulPartitionedCall/model_1/lambda/mul", "StatefulPartitionedCall/model_1/lambda/mul_1"], "attr": {"N": {"i": "2"}, "T": {"type": "DT_INT32"}, "axis": {"i": "0"}}}, {"name": "StatefulPartitionedCall/model_1/lambda/resize/ResizeBilinear", "op": "ResizeBilinear", "input": ["StatefulPartitionedCall/model_1/activation_6/Relu", "StatefulPartitionedCall/model_1/lambda/resize/size"], "attr": {"T": {"type": "DT_FLOAT"}, "align_corners": {"b": false}, "half_pixel_centers": {"b": true}}}, {"name": "StatefulPartitionedCall/model_1/conv2d_11/BiasAdd", "op": "_FusedConv2D", "input": ["StatefulPartitionedCall/model_1/lambda/resize/ResizeBilinear", "StatefulPartitionedCall/model_1/conv2d_11/Conv2D/ReadVariableOp", "StatefulPartitionedCall/model_1/conv2d_11/BiasAdd/ReadVariableOp"], "device": "/device:CPU:0", "attr": {"data_format": {"s": "TkhXQw=="}, "fused_ops": {"list": {"s": ["Qmlhc0FkZA=="]}}, "num_args": {"i": "1"}, "strides": {"list": {"i": ["1", "1", "1", "1"]}}, "epsilon": {"f": 0.0}, "T": {"type": "DT_FLOAT"}, "explicit_paddings": {"list": {}}, "dilations": {"list": {"i": ["1", "1", "1", "1"]}}, "use_cudnn_on_gpu": {"b": true}, "padding": {"s": "U0FNRQ=="}}}, {"name": "StatefulPartitionedCall/model_1/conv2d_12/BiasAdd", "op": "_FusedConv2D", "input": ["StatefulPartitionedCall/model_1/lambda/resize/ResizeBilinear", "StatefulPartitionedCall/model_1/conv2d_12/Conv2D/ReadVariableOp", "StatefulPartitionedCall/model_1/conv2d_12/BiasAdd/ReadVariableOp"], "device": "/device:CPU:0", "attr": {"use_cudnn_on_gpu": {"b": true}, "explicit_paddings": {"list": {}}, "epsilon": {"f": 0.0}, "fused_ops": {"list": {"s": ["Qmlhc0FkZA=="]}}, "num_args": {"i": "1"}, "dilations": {"list": {"i": ["1", "1", "1", "1"]}}, "T": {"type": "DT_FLOAT"}, "strides": {"list": {"i": ["1", "1", "1", "1"]}}, "padding": {"s": "U0FNRQ=="}, "data_format": {"s": "TkhXQw=="}}}, {"name": "StatefulPartitionedCall/model_1/instance_normalization_11/moments/mean", "op": "Mean", "input": ["StatefulPartitionedCall/model_1/conv2d_11/BiasAdd", "StatefulPartitionedCall/model_1/instance_normalization_11/moments/mean/reduction_indices"], "attr": {"keep_dims": {"b": true}, "Tidx": {"type": "DT_INT32"}, "T": {"type": "DT_FLOAT"}}}, {"name": "StatefulPartitionedCall/model_1/instance_normalization_12/moments/mean", "op": "Mean", "input": ["StatefulPartitionedCall/model_1/conv2d_12/BiasAdd", "StatefulPartitionedCall/model_1/instance_normalization_12/moments/mean/reduction_indices"], "attr": {"keep_dims": {"b": true}, "T": {"type": "DT_FLOAT"}, "Tidx": {"type": "DT_INT32"}}}, {"name": "StatefulPartitionedCall/model_1/instance_normalization_11/moments/SquaredDifference", "op": "SquaredDifference", "input": ["StatefulPartitionedCall/model_1/conv2d_11/BiasAdd", "StatefulPartitionedCall/model_1/instance_normalization_11/moments/mean"], "attr": {"T": {"type": "DT_FLOAT"}}}, {"name": "StatefulPartitionedCall/model_1/instance_normalization_12/moments/SquaredDifference", "op": "SquaredDifference", "input": ["StatefulPartitionedCall/model_1/conv2d_12/BiasAdd", "StatefulPartitionedCall/model_1/instance_normalization_12/moments/mean"], "attr": {"T": {"type": "DT_FLOAT"}}}, {"name": "StatefulPartitionedCall/model_1/instance_normalization_11/moments/variance", "op": "Mean", "input": ["StatefulPartitionedCall/model_1/instance_normalization_11/moments/SquaredDifference", "StatefulPartitionedCall/model_1/instance_normalization_11/moments/variance/reduction_indices"], "attr": {"Tidx": {"type": "DT_INT32"}, "T": {"type": "DT_FLOAT"}, "keep_dims": {"b": true}}}, {"name": "StatefulPartitionedCall/model_1/instance_normalization_12/moments/variance", "op": "Mean", "input": ["StatefulPartitionedCall/model_1/instance_normalization_12/moments/SquaredDifference", "StatefulPartitionedCall/model_1/instance_normalization_12/moments/variance/reduction_indices"], "attr": {"Tidx": {"type": "DT_INT32"}, "T": {"type": "DT_FLOAT"}, "keep_dims": {"b": true}}}, {"name": "StatefulPartitionedCall/model_1/instance_normalization_11/batchnorm/add", "op": "AddV2", "input": ["StatefulPartitionedCall/model_1/instance_normalization_11/moments/variance", "StatefulPartitionedCall/model_1/instance_normalization_11/batchnorm/add/y"], "attr": {"T": {"type": "DT_FLOAT"}}}, {"name": "StatefulPartitionedCall/model_1/instance_normalization_12/batchnorm/add", "op": "AddV2", "input": ["StatefulPartitionedCall/model_1/instance_normalization_12/moments/variance", "StatefulPartitionedCall/model_1/instance_normalization_12/batchnorm/add/y"], "attr": {"T": {"type": "DT_FLOAT"}}}, {"name": "StatefulPartitionedCall/model_1/instance_normalization_11/batchnorm/Rsqrt", "op": "Rsqrt", "input": ["StatefulPartitionedCall/model_1/instance_normalization_11/batchnorm/add"], "attr": {"T": {"type": "DT_FLOAT"}}}, {"name": "StatefulPartitionedCall/model_1/instance_normalization_12/batchnorm/Rsqrt", "op": "Rsqrt", "input": ["StatefulPartitionedCall/model_1/instance_normalization_12/batchnorm/add"], "attr": {"T": {"type": "DT_FLOAT"}}}, {"name": "StatefulPartitionedCall/model_1/instance_normalization_11/batchnorm/mul", "op": "Mul", "input": ["StatefulPartitionedCall/model_1/instance_normalization_11/batchnorm/Rsqrt", "StatefulPartitionedCall/model_1/instance_normalization_11/Reshape"], "attr": {"T": {"type": "DT_FLOAT"}}}, {"name": "StatefulPartitionedCall/model_1/instance_normalization_12/batchnorm/mul", "op": "Mul", "input": ["StatefulPartitionedCall/model_1/instance_normalization_12/batchnorm/Rsqrt", "StatefulPartitionedCall/model_1/instance_normalization_12/Reshape"], "attr": {"T": {"type": "DT_FLOAT"}}}, {"name": "StatefulPartitionedCall/model_1/instance_normalization_11/batchnorm/mul_2", "op": "Mul", "input": ["StatefulPartitionedCall/model_1/instance_normalization_11/moments/mean", "StatefulPartitionedCall/model_1/instance_normalization_11/batchnorm/mul"], "attr": {"T": {"type": "DT_FLOAT"}}}, {"name": "StatefulPartitionedCall/model_1/instance_normalization_11/batchnorm/mul_1", "op": "Mul", "input": ["StatefulPartitionedCall/model_1/conv2d_11/BiasAdd", "StatefulPartitionedCall/model_1/instance_normalization_11/batchnorm/mul"], "attr": {"T": {"type": "DT_FLOAT"}}}, {"name": "StatefulPartitionedCall/model_1/instance_normalization_12/batchnorm/mul_2", "op": "Mul", "input": ["StatefulPartitionedCall/model_1/instance_normalization_12/moments/mean", "StatefulPartitionedCall/model_1/instance_normalization_12/batchnorm/mul"], "attr": {"T": {"type": "DT_FLOAT"}}}, {"name": "StatefulPartitionedCall/model_1/instance_normalization_12/batchnorm/mul_1", "op": "Mul", "input": ["StatefulPartitionedCall/model_1/conv2d_12/BiasAdd", "StatefulPartitionedCall/model_1/instance_normalization_12/batchnorm/mul"], "attr": {"T": {"type": "DT_FLOAT"}}}, {"name": "StatefulPartitionedCall/model_1/instance_normalization_11/batchnorm/sub", "op": "Sub", "input": ["StatefulPartitionedCall/model_1/instance_normalization_11/Reshape_1", "StatefulPartitionedCall/model_1/instance_normalization_11/batchnorm/mul_2"], "attr": {"T": {"type": "DT_FLOAT"}}}, {"name": "StatefulPartitionedCall/model_1/instance_normalization_12/batchnorm/sub", "op": "Sub", "input": ["StatefulPartitionedCall/model_1/instance_normalization_12/Reshape_1", "StatefulPartitionedCall/model_1/instance_normalization_12/batchnorm/mul_2"], "attr": {"T": {"type": "DT_FLOAT"}}}, {"name": "StatefulPartitionedCall/model_1/add_7/ArithmeticOptimizer/AddOpsRewrite_Leaf_1_add", "op": "AddN", "input": ["StatefulPartitionedCall/model_1/instance_normalization_11/batchnorm/mul_1", "StatefulPartitionedCall/model_1/instance_normalization_12/batchnorm/mul_1"], "attr": {"T": {"type": "DT_FLOAT"}, "N": {"i": "2"}, "_grappler_ArithmeticOptimizer_AddOpsRewriteStage": {"b": true}}}, {"name": "StatefulPartitionedCall/model_1/add_7/ArithmeticOptimizer/AddOpsRewrite_Leaf_0_add", "op": "AddN", "input": ["StatefulPartitionedCall/model_1/instance_normalization_11/batchnorm/sub", "StatefulPartitionedCall/model_1/instance_normalization_12/batchnorm/sub"], "attr": {"_grappler_ArithmeticOptimizer_AddOpsRewriteStage": {"b": true}, "T": {"type": "DT_FLOAT"}, "N": {"i": "2"}}}, {"name": "StatefulPartitionedCall/model_1/add_7/ArithmeticOptimizer/AddOpsRewrite_add", "op": "AddV2", "input": ["StatefulPartitionedCall/model_1/add_7/ArithmeticOptimizer/AddOpsRewrite_Leaf_0_add", "StatefulPartitionedCall/model_1/add_7/ArithmeticOptimizer/AddOpsRewrite_Leaf_1_add"], "attr": {"_grappler_ArithmeticOptimizer_AddOpsRewriteStage": {"b": true}, "T": {"type": "DT_FLOAT"}}}, {"name": "StatefulPartitionedCall/model_1/activation_7/Relu", "op": "Relu", "input": ["StatefulPartitionedCall/model_1/add_7/ArithmeticOptimizer/AddOpsRewrite_add"], "attr": {"T": {"type": "DT_FLOAT"}}}, {"name": "StatefulPartitionedCall/model_1/lambda_1/Shape", "op": "Shape", "input": ["StatefulPartitionedCall/model_1/activation_7/Relu"], "attr": {"out_type": {"type": "DT_INT32"}, "T": {"type": "DT_FLOAT"}}}, {"name": "StatefulPartitionedCall/model_1/lambda_1/strided_slice", "op": "StridedSlice", "input": ["StatefulPartitionedCall/model_1/lambda_1/Shape", "StatefulPartitionedCall/model_1/lambda_1/strided_slice/stack", "StatefulPartitionedCall/model_1/lambda_1/strided_slice/stack_1", "StatefulPartitionedCall/model_1/lambda_1/strided_slice/stack_2"], "attr": {"ellipsis_mask": {"i": "0"}, "new_axis_mask": {"i": "0"}, "end_mask": {"i": "0"}, "shrink_axis_mask": {"i": "1"}, "begin_mask": {"i": "0"}, "T": {"type": "DT_INT32"}, "Index": {"type": "DT_INT32"}}}, {"name": "StatefulPartitionedCall/model_1/lambda_1/strided_slice_1", "op": "StridedSlice", "input": ["StatefulPartitionedCall/model_1/lambda_1/Shape", "StatefulPartitionedCall/model_1/lambda_1/strided_slice_1/stack", "StatefulPartitionedCall/model_1/lambda_1/strided_slice_1/stack_1", "StatefulPartitionedCall/model_1/lambda_1/strided_slice_1/stack_2"], "attr": {"end_mask": {"i": "0"}, "new_axis_mask": {"i": "0"}, "Index": {"type": "DT_INT32"}, "ellipsis_mask": {"i": "0"}, "shrink_axis_mask": {"i": "1"}, "T": {"type": "DT_INT32"}, "begin_mask": {"i": "0"}}}, {"name": "StatefulPartitionedCall/model_1/lambda_1/mul", "op": "Mul", "input": ["StatefulPartitionedCall/model_1/lambda_1/mul/x", "StatefulPartitionedCall/model_1/lambda_1/strided_slice"], "attr": {"T": {"type": "DT_INT32"}}}, {"name": "StatefulPartitionedCall/model_1/lambda_1/mul_1", "op": "Mul", "input": ["StatefulPartitionedCall/model_1/lambda_1/mul_1/x", "StatefulPartitionedCall/model_1/lambda_1/strided_slice_1"], "attr": {"T": {"type": "DT_INT32"}}}, {"name": "StatefulPartitionedCall/model_1/lambda_1/resize/size", "op": "Pack", "input": ["StatefulPartitionedCall/model_1/lambda_1/mul", "StatefulPartitionedCall/model_1/lambda_1/mul_1"], "attr": {"axis": {"i": "0"}, "T": {"type": "DT_INT32"}, "N": {"i": "2"}}}, {"name": "StatefulPartitionedCall/model_1/lambda_1/resize/ResizeBilinear", "op": "ResizeBilinear", "input": ["StatefulPartitionedCall/model_1/activation_7/Relu", "StatefulPartitionedCall/model_1/lambda_1/resize/size"], "attr": {"T": {"type": "DT_FLOAT"}, "align_corners": {"b": false}, "half_pixel_centers": {"b": true}}}, {"name": "StatefulPartitionedCall/model_1/conv2d_13/BiasAdd", "op": "_FusedConv2D", "input": ["StatefulPartitionedCall/model_1/lambda_1/resize/ResizeBilinear", "StatefulPartitionedCall/model_1/conv2d_13/Conv2D/ReadVariableOp", "StatefulPartitionedCall/model_1/conv2d_13/BiasAdd/ReadVariableOp"], "device": "/device:CPU:0", "attr": {"dilations": {"list": {"i": ["1", "1", "1", "1"]}}, "use_cudnn_on_gpu": {"b": true}, "epsilon": {"f": 0.0}, "strides": {"list": {"i": ["1", "1", "1", "1"]}}, "data_format": {"s": "TkhXQw=="}, "fused_ops": {"list": {"s": ["Qmlhc0FkZA=="]}}, "T": {"type": "DT_FLOAT"}, "explicit_paddings": {"list": {}}, "padding": {"s": "U0FNRQ=="}, "num_args": {"i": "1"}}}, {"name": "StatefulPartitionedCall/model_1/conv2d_14/BiasAdd", "op": "_FusedConv2D", "input": ["StatefulPartitionedCall/model_1/lambda_1/resize/ResizeBilinear", "StatefulPartitionedCall/model_1/conv2d_14/Conv2D/ReadVariableOp", "StatefulPartitionedCall/model_1/conv2d_14/BiasAdd/ReadVariableOp"], "device": "/device:CPU:0", "attr": {"strides": {"list": {"i": ["1", "1", "1", "1"]}}, "data_format": {"s": "TkhXQw=="}, "use_cudnn_on_gpu": {"b": true}, "num_args": {"i": "1"}, "fused_ops": {"list": {"s": ["Qmlhc0FkZA=="]}}, "dilations": {"list": {"i": ["1", "1", "1", "1"]}}, "padding": {"s": "U0FNRQ=="}, "epsilon": {"f": 0.0}, "T": {"type": "DT_FLOAT"}, "explicit_paddings": {"list": {}}}}, {"name": "StatefulPartitionedCall/model_1/instance_normalization_13/moments/mean", "op": "Mean", "input": ["StatefulPartitionedCall/model_1/conv2d_13/BiasAdd", "StatefulPartitionedCall/model_1/instance_normalization_13/moments/mean/reduction_indices"], "attr": {"keep_dims": {"b": true}, "Tidx": {"type": "DT_INT32"}, "T": {"type": "DT_FLOAT"}}}, {"name": "StatefulPartitionedCall/model_1/instance_normalization_14/moments/mean", "op": "Mean", "input": ["StatefulPartitionedCall/model_1/conv2d_14/BiasAdd", "StatefulPartitionedCall/model_1/instance_normalization_14/moments/mean/reduction_indices"], "attr": {"T": {"type": "DT_FLOAT"}, "Tidx": {"type": "DT_INT32"}, "keep_dims": {"b": true}}}, {"name": "StatefulPartitionedCall/model_1/instance_normalization_13/moments/SquaredDifference", "op": "SquaredDifference", "input": ["StatefulPartitionedCall/model_1/conv2d_13/BiasAdd", "StatefulPartitionedCall/model_1/instance_normalization_13/moments/mean"], "attr": {"T": {"type": "DT_FLOAT"}}}, {"name": "StatefulPartitionedCall/model_1/instance_normalization_14/moments/SquaredDifference", "op": "SquaredDifference", "input": ["StatefulPartitionedCall/model_1/conv2d_14/BiasAdd", "StatefulPartitionedCall/model_1/instance_normalization_14/moments/mean"], "attr": {"T": {"type": "DT_FLOAT"}}}, {"name": "StatefulPartitionedCall/model_1/instance_normalization_13/moments/variance", "op": "Mean", "input": ["StatefulPartitionedCall/model_1/instance_normalization_13/moments/SquaredDifference", "StatefulPartitionedCall/model_1/instance_normalization_13/moments/variance/reduction_indices"], "attr": {"keep_dims": {"b": true}, "Tidx": {"type": "DT_INT32"}, "T": {"type": "DT_FLOAT"}}}, {"name": "StatefulPartitionedCall/model_1/instance_normalization_14/moments/variance", "op": "Mean", "input": ["StatefulPartitionedCall/model_1/instance_normalization_14/moments/SquaredDifference", "StatefulPartitionedCall/model_1/instance_normalization_14/moments/variance/reduction_indices"], "attr": {"T": {"type": "DT_FLOAT"}, "keep_dims": {"b": true}, "Tidx": {"type": "DT_INT32"}}}, {"name": "StatefulPartitionedCall/model_1/instance_normalization_13/batchnorm/add", "op": "AddV2", "input": ["StatefulPartitionedCall/model_1/instance_normalization_13/moments/variance", "StatefulPartitionedCall/model_1/instance_normalization_13/batchnorm/add/y"], "attr": {"T": {"type": "DT_FLOAT"}}}, {"name": "StatefulPartitionedCall/model_1/instance_normalization_14/batchnorm/add", "op": "AddV2", "input": ["StatefulPartitionedCall/model_1/instance_normalization_14/moments/variance", "StatefulPartitionedCall/model_1/instance_normalization_14/batchnorm/add/y"], "attr": {"T": {"type": "DT_FLOAT"}}}, {"name": "StatefulPartitionedCall/model_1/instance_normalization_13/batchnorm/Rsqrt", "op": "Rsqrt", "input": ["StatefulPartitionedCall/model_1/instance_normalization_13/batchnorm/add"], "attr": {"T": {"type": "DT_FLOAT"}}}, {"name": "StatefulPartitionedCall/model_1/instance_normalization_14/batchnorm/Rsqrt", "op": "Rsqrt", "input": ["StatefulPartitionedCall/model_1/instance_normalization_14/batchnorm/add"], "attr": {"T": {"type": "DT_FLOAT"}}}, {"name": "StatefulPartitionedCall/model_1/instance_normalization_13/batchnorm/mul", "op": "Mul", "input": ["StatefulPartitionedCall/model_1/instance_normalization_13/batchnorm/Rsqrt", "StatefulPartitionedCall/model_1/instance_normalization_13/Reshape"], "attr": {"T": {"type": "DT_FLOAT"}}}, {"name": "StatefulPartitionedCall/model_1/instance_normalization_14/batchnorm/mul", "op": "Mul", "input": ["StatefulPartitionedCall/model_1/instance_normalization_14/batchnorm/Rsqrt", "StatefulPartitionedCall/model_1/instance_normalization_14/Reshape"], "attr": {"T": {"type": "DT_FLOAT"}}}, {"name": "StatefulPartitionedCall/model_1/instance_normalization_13/batchnorm/mul_2", "op": "Mul", "input": ["StatefulPartitionedCall/model_1/instance_normalization_13/moments/mean", "StatefulPartitionedCall/model_1/instance_normalization_13/batchnorm/mul"], "attr": {"T": {"type": "DT_FLOAT"}}}, {"name": "StatefulPartitionedCall/model_1/instance_normalization_13/batchnorm/mul_1", "op": "Mul", "input": ["StatefulPartitionedCall/model_1/conv2d_13/BiasAdd", "StatefulPartitionedCall/model_1/instance_normalization_13/batchnorm/mul"], "attr": {"T": {"type": "DT_FLOAT"}}}, {"name": "StatefulPartitionedCall/model_1/instance_normalization_14/batchnorm/mul_2", "op": "Mul", "input": ["StatefulPartitionedCall/model_1/instance_normalization_14/moments/mean", "StatefulPartitionedCall/model_1/instance_normalization_14/batchnorm/mul"], "attr": {"T": {"type": "DT_FLOAT"}}}, {"name": "StatefulPartitionedCall/model_1/instance_normalization_14/batchnorm/mul_1", "op": "Mul", "input": ["StatefulPartitionedCall/model_1/conv2d_14/BiasAdd", "StatefulPartitionedCall/model_1/instance_normalization_14/batchnorm/mul"], "attr": {"T": {"type": "DT_FLOAT"}}}, {"name": "StatefulPartitionedCall/model_1/instance_normalization_13/batchnorm/sub", "op": "Sub", "input": ["StatefulPartitionedCall/model_1/instance_normalization_13/Reshape_1", "StatefulPartitionedCall/model_1/instance_normalization_13/batchnorm/mul_2"], "attr": {"T": {"type": "DT_FLOAT"}}}, {"name": "StatefulPartitionedCall/model_1/instance_normalization_14/batchnorm/sub", "op": "Sub", "input": ["StatefulPartitionedCall/model_1/instance_normalization_14/Reshape_1", "StatefulPartitionedCall/model_1/instance_normalization_14/batchnorm/mul_2"], "attr": {"T": {"type": "DT_FLOAT"}}}, {"name": "StatefulPartitionedCall/model_1/add_8/ArithmeticOptimizer/AddOpsRewrite_Leaf_1_add", "op": "AddN", "input": ["StatefulPartitionedCall/model_1/instance_normalization_13/batchnorm/mul_1", "StatefulPartitionedCall/model_1/instance_normalization_14/batchnorm/mul_1"], "attr": {"N": {"i": "2"}, "T": {"type": "DT_FLOAT"}, "_grappler_ArithmeticOptimizer_AddOpsRewriteStage": {"b": true}}}, {"name": "StatefulPartitionedCall/model_1/add_8/ArithmeticOptimizer/AddOpsRewrite_Leaf_0_add", "op": "AddN", "input": ["StatefulPartitionedCall/model_1/instance_normalization_13/batchnorm/sub", "StatefulPartitionedCall/model_1/instance_normalization_14/batchnorm/sub"], "attr": {"T": {"type": "DT_FLOAT"}, "_grappler_ArithmeticOptimizer_AddOpsRewriteStage": {"b": true}, "N": {"i": "2"}}}, {"name": "StatefulPartitionedCall/model_1/add_8/ArithmeticOptimizer/AddOpsRewrite_add", "op": "AddV2", "input": ["StatefulPartitionedCall/model_1/add_8/ArithmeticOptimizer/AddOpsRewrite_Leaf_0_add", "StatefulPartitionedCall/model_1/add_8/ArithmeticOptimizer/AddOpsRewrite_Leaf_1_add"], "attr": {"_grappler_ArithmeticOptimizer_AddOpsRewriteStage": {"b": true}, "T": {"type": "DT_FLOAT"}}}, {"name": "StatefulPartitionedCall/model_1/activation_8/Relu", "op": "Relu", "input": ["StatefulPartitionedCall/model_1/add_8/ArithmeticOptimizer/AddOpsRewrite_add"], "attr": {"T": {"type": "DT_FLOAT"}}}, {"name": "StatefulPartitionedCall/model_1/lambda_2/Shape", "op": "Shape", "input": ["StatefulPartitionedCall/model_1/activation_8/Relu"], "attr": {"T": {"type": "DT_FLOAT"}, "out_type": {"type": "DT_INT32"}}}, {"name": "StatefulPartitionedCall/model_1/lambda_2/strided_slice", "op": "StridedSlice", "input": ["StatefulPartitionedCall/model_1/lambda_2/Shape", "StatefulPartitionedCall/model_1/lambda_2/strided_slice/stack", "StatefulPartitionedCall/model_1/lambda_2/strided_slice/stack_1", "StatefulPartitionedCall/model_1/lambda_2/strided_slice/stack_2"], "attr": {"begin_mask": {"i": "0"}, "end_mask": {"i": "0"}, "T": {"type": "DT_INT32"}, "Index": {"type": "DT_INT32"}, "new_axis_mask": {"i": "0"}, "shrink_axis_mask": {"i": "1"}, "ellipsis_mask": {"i": "0"}}}, {"name": "StatefulPartitionedCall/model_1/lambda_2/strided_slice_1", "op": "StridedSlice", "input": ["StatefulPartitionedCall/model_1/lambda_2/Shape", "StatefulPartitionedCall/model_1/lambda_2/strided_slice_1/stack", "StatefulPartitionedCall/model_1/lambda_2/strided_slice_1/stack_1", "StatefulPartitionedCall/model_1/lambda_2/strided_slice_1/stack_2"], "attr": {"Index": {"type": "DT_INT32"}, "new_axis_mask": {"i": "0"}, "ellipsis_mask": {"i": "0"}, "begin_mask": {"i": "0"}, "end_mask": {"i": "0"}, "T": {"type": "DT_INT32"}, "shrink_axis_mask": {"i": "1"}}}, {"name": "StatefulPartitionedCall/model_1/lambda_2/mul", "op": "Mul", "input": ["StatefulPartitionedCall/model_1/lambda_2/mul/x", "StatefulPartitionedCall/model_1/lambda_2/strided_slice"], "attr": {"T": {"type": "DT_INT32"}}}, {"name": "StatefulPartitionedCall/model_1/lambda_2/mul_1", "op": "Mul", "input": ["StatefulPartitionedCall/model_1/lambda_2/mul_1/x", "StatefulPartitionedCall/model_1/lambda_2/strided_slice_1"], "attr": {"T": {"type": "DT_INT32"}}}, {"name": "StatefulPartitionedCall/model_1/lambda_2/resize/size", "op": "Pack", "input": ["StatefulPartitionedCall/model_1/lambda_2/mul", "StatefulPartitionedCall/model_1/lambda_2/mul_1"], "attr": {"axis": {"i": "0"}, "N": {"i": "2"}, "T": {"type": "DT_INT32"}}}, {"name": "StatefulPartitionedCall/model_1/lambda_2/resize/ResizeBilinear", "op": "ResizeBilinear", "input": ["StatefulPartitionedCall/model_1/activation_8/Relu", "StatefulPartitionedCall/model_1/lambda_2/resize/size"], "attr": {"align_corners": {"b": false}, "T": {"type": "DT_FLOAT"}, "half_pixel_centers": {"b": true}}}, {"name": "StatefulPartitionedCall/model_1/conv2d_15/BiasAdd", "op": "_FusedConv2D", "input": ["StatefulPartitionedCall/model_1/lambda_2/resize/ResizeBilinear", "StatefulPartitionedCall/model_1/conv2d_15/Conv2D/ReadVariableOp", "StatefulPartitionedCall/model_1/conv2d_15/BiasAdd/ReadVariableOp"], "device": "/device:CPU:0", "attr": {"num_args": {"i": "1"}, "T": {"type": "DT_FLOAT"}, "data_format": {"s": "TkhXQw=="}, "padding": {"s": "U0FNRQ=="}, "explicit_paddings": {"list": {}}, "use_cudnn_on_gpu": {"b": true}, "dilations": {"list": {"i": ["1", "1", "1", "1"]}}, "strides": {"list": {"i": ["1", "1", "1", "1"]}}, "fused_ops": {"list": {"s": ["Qmlhc0FkZA=="]}}, "epsilon": {"f": 0.0}}}, {"name": "StatefulPartitionedCall/model_1/conv2d_16/BiasAdd", "op": "_FusedConv2D", "input": ["StatefulPartitionedCall/model_1/lambda_2/resize/ResizeBilinear", "StatefulPartitionedCall/model_1/conv2d_16/Conv2D/ReadVariableOp", "StatefulPartitionedCall/model_1/conv2d_16/BiasAdd/ReadVariableOp"], "device": "/device:CPU:0", "attr": {"epsilon": {"f": 0.0}, "use_cudnn_on_gpu": {"b": true}, "fused_ops": {"list": {"s": ["Qmlhc0FkZA=="]}}, "num_args": {"i": "1"}, "data_format": {"s": "TkhXQw=="}, "T": {"type": "DT_FLOAT"}, "padding": {"s": "U0FNRQ=="}, "strides": {"list": {"i": ["1", "1", "1", "1"]}}, "explicit_paddings": {"list": {}}, "dilations": {"list": {"i": ["1", "1", "1", "1"]}}}}, {"name": "StatefulPartitionedCall/model_1/instance_normalization_15/moments/mean", "op": "Mean", "input": ["StatefulPartitionedCall/model_1/conv2d_15/BiasAdd", "StatefulPartitionedCall/model_1/instance_normalization_15/moments/mean/reduction_indices"], "attr": {"keep_dims": {"b": true}, "T": {"type": "DT_FLOAT"}, "Tidx": {"type": "DT_INT32"}}}, {"name": "StatefulPartitionedCall/model_1/instance_normalization_16/moments/mean", "op": "Mean", "input": ["StatefulPartitionedCall/model_1/conv2d_16/BiasAdd", "StatefulPartitionedCall/model_1/instance_normalization_16/moments/mean/reduction_indices"], "attr": {"Tidx": {"type": "DT_INT32"}, "T": {"type": "DT_FLOAT"}, "keep_dims": {"b": true}}}, {"name": "StatefulPartitionedCall/model_1/instance_normalization_15/moments/SquaredDifference", "op": "SquaredDifference", "input": ["StatefulPartitionedCall/model_1/conv2d_15/BiasAdd", "StatefulPartitionedCall/model_1/instance_normalization_15/moments/mean"], "attr": {"T": {"type": "DT_FLOAT"}}}, {"name": "StatefulPartitionedCall/model_1/instance_normalization_16/moments/SquaredDifference", "op": "SquaredDifference", "input": ["StatefulPartitionedCall/model_1/conv2d_16/BiasAdd", "StatefulPartitionedCall/model_1/instance_normalization_16/moments/mean"], "attr": {"T": {"type": "DT_FLOAT"}}}, {"name": "StatefulPartitionedCall/model_1/instance_normalization_15/moments/variance", "op": "Mean", "input": ["StatefulPartitionedCall/model_1/instance_normalization_15/moments/SquaredDifference", "StatefulPartitionedCall/model_1/instance_normalization_15/moments/variance/reduction_indices"], "attr": {"T": {"type": "DT_FLOAT"}, "Tidx": {"type": "DT_INT32"}, "keep_dims": {"b": true}}}, {"name": "StatefulPartitionedCall/model_1/instance_normalization_16/moments/variance", "op": "Mean", "input": ["StatefulPartitionedCall/model_1/instance_normalization_16/moments/SquaredDifference", "StatefulPartitionedCall/model_1/instance_normalization_16/moments/variance/reduction_indices"], "attr": {"keep_dims": {"b": true}, "T": {"type": "DT_FLOAT"}, "Tidx": {"type": "DT_INT32"}}}, {"name": "StatefulPartitionedCall/model_1/instance_normalization_15/batchnorm/add", "op": "AddV2", "input": ["StatefulPartitionedCall/model_1/instance_normalization_15/moments/variance", "StatefulPartitionedCall/model_1/instance_normalization_15/batchnorm/add/y"], "attr": {"T": {"type": "DT_FLOAT"}}}, {"name": "StatefulPartitionedCall/model_1/instance_normalization_16/batchnorm/add", "op": "AddV2", "input": ["StatefulPartitionedCall/model_1/instance_normalization_16/moments/variance", "StatefulPartitionedCall/model_1/instance_normalization_16/batchnorm/add/y"], "attr": {"T": {"type": "DT_FLOAT"}}}, {"name": "StatefulPartitionedCall/model_1/instance_normalization_15/batchnorm/Rsqrt", "op": "Rsqrt", "input": ["StatefulPartitionedCall/model_1/instance_normalization_15/batchnorm/add"], "attr": {"T": {"type": "DT_FLOAT"}}}, {"name": "StatefulPartitionedCall/model_1/instance_normalization_16/batchnorm/Rsqrt", "op": "Rsqrt", "input": ["StatefulPartitionedCall/model_1/instance_normalization_16/batchnorm/add"], "attr": {"T": {"type": "DT_FLOAT"}}}, {"name": "StatefulPartitionedCall/model_1/instance_normalization_15/batchnorm/mul", "op": "Mul", "input": ["StatefulPartitionedCall/model_1/instance_normalization_15/batchnorm/Rsqrt", "StatefulPartitionedCall/model_1/instance_normalization_15/Reshape"], "attr": {"T": {"type": "DT_FLOAT"}}}, {"name": "StatefulPartitionedCall/model_1/instance_normalization_16/batchnorm/mul", "op": "Mul", "input": ["StatefulPartitionedCall/model_1/instance_normalization_16/batchnorm/Rsqrt", "StatefulPartitionedCall/model_1/instance_normalization_16/Reshape"], "attr": {"T": {"type": "DT_FLOAT"}}}, {"name": "StatefulPartitionedCall/model_1/instance_normalization_15/batchnorm/mul_2", "op": "Mul", "input": ["StatefulPartitionedCall/model_1/instance_normalization_15/moments/mean", "StatefulPartitionedCall/model_1/instance_normalization_15/batchnorm/mul"], "attr": {"T": {"type": "DT_FLOAT"}}}, {"name": "StatefulPartitionedCall/model_1/instance_normalization_15/batchnorm/mul_1", "op": "Mul", "input": ["StatefulPartitionedCall/model_1/conv2d_15/BiasAdd", "StatefulPartitionedCall/model_1/instance_normalization_15/batchnorm/mul"], "attr": {"T": {"type": "DT_FLOAT"}}}, {"name": "StatefulPartitionedCall/model_1/instance_normalization_16/batchnorm/mul_2", "op": "Mul", "input": ["StatefulPartitionedCall/model_1/instance_normalization_16/moments/mean", "StatefulPartitionedCall/model_1/instance_normalization_16/batchnorm/mul"], "attr": {"T": {"type": "DT_FLOAT"}}}, {"name": "StatefulPartitionedCall/model_1/instance_normalization_16/batchnorm/mul_1", "op": "Mul", "input": ["StatefulPartitionedCall/model_1/conv2d_16/BiasAdd", "StatefulPartitionedCall/model_1/instance_normalization_16/batchnorm/mul"], "attr": {"T": {"type": "DT_FLOAT"}}}, {"name": "StatefulPartitionedCall/model_1/instance_normalization_15/batchnorm/sub", "op": "Sub", "input": ["StatefulPartitionedCall/model_1/instance_normalization_15/Reshape_1", "StatefulPartitionedCall/model_1/instance_normalization_15/batchnorm/mul_2"], "attr": {"T": {"type": "DT_FLOAT"}}}, {"name": "StatefulPartitionedCall/model_1/instance_normalization_16/batchnorm/sub", "op": "Sub", "input": ["StatefulPartitionedCall/model_1/instance_normalization_16/Reshape_1", "StatefulPartitionedCall/model_1/instance_normalization_16/batchnorm/mul_2"], "attr": {"T": {"type": "DT_FLOAT"}}}, {"name": "StatefulPartitionedCall/model_1/add_9/ArithmeticOptimizer/AddOpsRewrite_Leaf_1_add", "op": "AddN", "input": ["StatefulPartitionedCall/model_1/instance_normalization_15/batchnorm/mul_1", "StatefulPartitionedCall/model_1/instance_normalization_16/batchnorm/mul_1"], "attr": {"N": {"i": "2"}, "T": {"type": "DT_FLOAT"}, "_grappler_ArithmeticOptimizer_AddOpsRewriteStage": {"b": true}}}, {"name": "StatefulPartitionedCall/model_1/add_9/ArithmeticOptimizer/AddOpsRewrite_Leaf_0_add", "op": "AddN", "input": ["StatefulPartitionedCall/model_1/instance_normalization_15/batchnorm/sub", "StatefulPartitionedCall/model_1/instance_normalization_16/batchnorm/sub"], "attr": {"_grappler_ArithmeticOptimizer_AddOpsRewriteStage": {"b": true}, "N": {"i": "2"}, "T": {"type": "DT_FLOAT"}}}, {"name": "StatefulPartitionedCall/model_1/add_9/ArithmeticOptimizer/AddOpsRewrite_add", "op": "AddV2", "input": ["StatefulPartitionedCall/model_1/add_9/ArithmeticOptimizer/AddOpsRewrite_Leaf_0_add", "StatefulPartitionedCall/model_1/add_9/ArithmeticOptimizer/AddOpsRewrite_Leaf_1_add"], "attr": {"_grappler_ArithmeticOptimizer_AddOpsRewriteStage": {"b": true}, "T": {"type": "DT_FLOAT"}}}, {"name": "StatefulPartitionedCall/model_1/activation_9/Relu", "op": "Relu", "input": ["StatefulPartitionedCall/model_1/add_9/ArithmeticOptimizer/AddOpsRewrite_add"], "attr": {"T": {"type": "DT_FLOAT"}}}, {"name": "StatefulPartitionedCall/model_1/conv2d_17/BiasAdd", "op": "_FusedConv2D", "input": ["StatefulPartitionedCall/model_1/activation_9/Relu", "StatefulPartitionedCall/model_1/conv2d_17/Conv2D/ReadVariableOp", "StatefulPartitionedCall/model_1/conv2d_17/BiasAdd/ReadVariableOp"], "device": "/device:CPU:0", "attr": {"use_cudnn_on_gpu": {"b": true}, "T": {"type": "DT_FLOAT"}, "explicit_paddings": {"list": {}}, "padding": {"s": "U0FNRQ=="}, "fused_ops": {"list": {"s": ["Qmlhc0FkZA=="]}}, "dilations": {"list": {"i": ["1", "1", "1", "1"]}}, "epsilon": {"f": 0.0}, "data_format": {"s": "TkhXQw=="}, "num_args": {"i": "1"}, "strides": {"list": {"i": ["1", "1", "1", "1"]}}}}, {"name": "StatefulPartitionedCall/model_1/conv2d_17/Sigmoid", "op": "Sigmoid", "input": ["StatefulPartitionedCall/model_1/conv2d_17/BiasAdd"], "attr": {"T": {"type": "DT_FLOAT"}}}, {"name": "StatefulPartitionedCall/model_1/tf.math.multiply/Mul", "op": "Mul", "input": ["StatefulPartitionedCall/model_1/conv2d_17/Sigmoid", "StatefulPartitionedCall/model_1/tf.math.multiply/Mul/y"], "attr": {"T": {"type": "DT_FLOAT"}}}, {"name": "Identity", "op": "Identity", "input": ["StatefulPartitionedCall/model_1/tf.math.multiply/Mul"], "attr": {"T": {"type": "DT_FLOAT"}}}], "library": {}, "versions": {"producer": 716}}, "weightsManifest": [{"paths": ["group1-shard1of1.bin"], "weights": [{"name": "StatefulPartitionedCall/model_1/instance_normalization_15/Reshape_1", "shape": [1, 1, 1, 32], "dtype": "float32"}, {"name": "StatefulPartitionedCall/model_1/instance_normalization_16/Reshape_1", "shape": [1, 1, 1, 32], "dtype": "float32"}, {"name": "StatefulPartitionedCall/model_1/conv2d_15/Conv2D/ReadVariableOp", "shape": [3, 3, 64, 32], "dtype": "float32"}, {"name": "StatefulPartitionedCall/model_1/conv2d_15/BiasAdd/ReadVariableOp", "shape": [32], "dtype": "float32"}, {"name": "StatefulPartitionedCall/model_1/instance_normalization_15/moments/mean/reduction_indices", "shape": [2], "dtype": "int32"}, {"name": "StatefulPartitionedCall/model_1/instance_normalization_15/moments/variance/reduction_indices", "shape": [2], "dtype": "int32"}, {"name": "StatefulPartitionedCall/model_1/instance_normalization_15/batchnorm/add/y", "shape": [], "dtype": "float32"}, {"name": "StatefulPartitionedCall/model_1/instance_normalization_15/Reshape", "shape": [1, 1, 1, 32], "dtype": "float32"}, {"name": "StatefulPartitionedCall/model_1/lambda_2/mul/x", "shape": [], "dtype": "int32"}, {"name": "StatefulPartitionedCall/model_1/lambda_2/strided_slice/stack", "shape": [1], "dtype": "int32"}, {"name": "StatefulPartitionedCall/model_1/lambda_2/strided_slice/stack_1", "shape": [1], "dtype": "int32"}, {"name": "StatefulPartitionedCall/model_1/lambda_2/strided_slice/stack_2", "shape": [1], "dtype": "int32"}, {"name": "StatefulPartitionedCall/model_1/lambda_2/mul_1/x", "shape": [], "dtype": "int32"}, {"name": "StatefulPartitionedCall/model_1/instance_normalization_13/Reshape_1", "shape": [1, 1, 1, 64], "dtype": "float32"}, {"name": "StatefulPartitionedCall/model_1/instance_normalization_14/Reshape_1", "shape": [1, 1, 1, 64], "dtype": "float32"}, {"name": "StatefulPartitionedCall/model_1/conv2d_13/Conv2D/ReadVariableOp", "shape": [3, 3, 128, 64], "dtype": "float32"}, {"name": "StatefulPartitionedCall/model_1/conv2d_13/BiasAdd/ReadVariableOp", "shape": [64], "dtype": "float32"}, {"name": "StatefulPartitionedCall/model_1/instance_normalization_13/moments/mean/reduction_indices", "shape": [2], "dtype": "int32"}, {"name": "StatefulPartitionedCall/model_1/instance_normalization_13/moments/variance/reduction_indices", "shape": [2], "dtype": "int32"}, {"name": "StatefulPartitionedCall/model_1/instance_normalization_13/batchnorm/add/y", "shape": [], "dtype": "float32"}, {"name": "StatefulPartitionedCall/model_1/instance_normalization_13/Reshape", "shape": [1, 1, 1, 64], "dtype": "float32"}, {"name": "StatefulPartitionedCall/model_1/lambda_1/mul/x", "shape": [], "dtype": "int32"}, {"name": "StatefulPartitionedCall/model_1/lambda_1/strided_slice/stack", "shape": [1], "dtype": "int32"}, {"name": "StatefulPartitionedCall/model_1/lambda_1/strided_slice/stack_1", "shape": [1], "dtype": "int32"}, {"name": "StatefulPartitionedCall/model_1/lambda_1/strided_slice/stack_2", "shape": [1], "dtype": "int32"}, {"name": "StatefulPartitionedCall/model_1/lambda_1/mul_1/x", "shape": [], "dtype": "int32"}, {"name": "StatefulPartitionedCall/model_1/instance_normalization_11/Reshape_1", "shape": [1, 1, 1, 128], "dtype": "float32"}, {"name": "StatefulPartitionedCall/model_1/instance_normalization_12/Reshape_1", "shape": [1, 1, 1, 128], "dtype": "float32"}, {"name": "StatefulPartitionedCall/model_1/conv2d_11/Conv2D/ReadVariableOp", "shape": [3, 3, 128, 128], "dtype": "float32"}, {"name": "StatefulPartitionedCall/model_1/conv2d_11/BiasAdd/ReadVariableOp", "shape": [128], "dtype": "float32"}, {"name": "StatefulPartitionedCall/model_1/instance_normalization_11/moments/mean/reduction_indices", "shape": [2], "dtype": "int32"}, {"name": "StatefulPartitionedCall/model_1/instance_normalization_11/moments/variance/reduction_indices", "shape": [2], "dtype": "int32"}, {"name": "StatefulPartitionedCall/model_1/instance_normalization_11/batchnorm/add/y", "shape": [], "dtype": "float32"}, {"name": "StatefulPartitionedCall/model_1/instance_normalization_11/Reshape", "shape": [1, 1, 1, 128], "dtype": "float32"}, {"name": "StatefulPartitionedCall/model_1/lambda/mul/x", "shape": [], "dtype": "int32"}, {"name": "StatefulPartitionedCall/model_1/lambda/strided_slice/stack", "shape": [1], "dtype": "int32"}, {"name": "StatefulPartitionedCall/model_1/lambda/strided_slice/stack_1", "shape": [1], "dtype": "int32"}, {"name": "StatefulPartitionedCall/model_1/lambda/strided_slice/stack_2", "shape": [1], "dtype": "int32"}, {"name": "StatefulPartitionedCall/model_1/lambda/mul_1/x", "shape": [], "dtype": "int32"}, {"name": "StatefulPartitionedCall/model_1/instance_normalization_10/Reshape_1", "shape": [1, 1, 1, 128], "dtype": "float32"}, {"name": "StatefulPartitionedCall/model_1/conv2d_10/Conv2D/ReadVariableOp", "shape": [3, 3, 128, 128], "dtype": "float32"}, {"name": "StatefulPartitionedCall/model_1/conv2d_10/BiasAdd/ReadVariableOp", "shape": [128], "dtype": "float32"}, {"name": "StatefulPartitionedCall/model_1/instance_normalization_10/moments/mean/reduction_indices", "shape": [2], "dtype": "int32"}, {"name": "StatefulPartitionedCall/model_1/instance_normalization_10/moments/variance/reduction_indices", "shape": [2], "dtype": "int32"}, {"name": "StatefulPartitionedCall/model_1/instance_normalization_10/batchnorm/add/y", "shape": [], "dtype": "float32"}, {"name": "StatefulPartitionedCall/model_1/instance_normalization_10/Reshape", "shape": [1, 1, 1, 128], "dtype": "float32"}, {"name": "StatefulPartitionedCall/model_1/instance_normalization_9/Reshape_1", "shape": [1, 1, 1, 128], "dtype": "float32"}, {"name": "StatefulPartitionedCall/model_1/conv2d_9/Conv2D/ReadVariableOp", "shape": [3, 3, 128, 128], "dtype": "float32"}, {"name": "StatefulPartitionedCall/model_1/conv2d_9/BiasAdd/ReadVariableOp", "shape": [128], "dtype": "float32"}, {"name": "StatefulPartitionedCall/model_1/instance_normalization_9/moments/mean/reduction_indices", "shape": [2], "dtype": "int32"}, {"name": "StatefulPartitionedCall/model_1/instance_normalization_9/moments/variance/reduction_indices", "shape": [2], "dtype": "int32"}, {"name": "StatefulPartitionedCall/model_1/instance_normalization_9/batchnorm/add/y", "shape": [], "dtype": "float32"}, {"name": "StatefulPartitionedCall/model_1/instance_normalization_9/Reshape", "shape": [1, 1, 1, 128], "dtype": "float32"}, {"name": "StatefulPartitionedCall/model_1/instance_normalization_8/Reshape_1", "shape": [1, 1, 1, 128], "dtype": "float32"}, {"name": "StatefulPartitionedCall/model_1/conv2d_8/Conv2D/ReadVariableOp", "shape": [3, 3, 128, 128], "dtype": "float32"}, {"name": "StatefulPartitionedCall/model_1/conv2d_8/BiasAdd/ReadVariableOp", "shape": [128], "dtype": "float32"}, {"name": "StatefulPartitionedCall/model_1/instance_normalization_8/moments/mean/reduction_indices", "shape": [2], "dtype": "int32"}, {"name": "StatefulPartitionedCall/model_1/instance_normalization_8/moments/variance/reduction_indices", "shape": [2], "dtype": "int32"}, {"name": "StatefulPartitionedCall/model_1/instance_normalization_8/batchnorm/add/y", "shape": [], "dtype": "float32"}, {"name": "StatefulPartitionedCall/model_1/instance_normalization_8/Reshape", "shape": [1, 1, 1, 128], "dtype": "float32"}, {"name": "StatefulPartitionedCall/model_1/instance_normalization_6/Reshape_1", "shape": [1, 1, 1, 128], "dtype": "float32"}, {"name": "StatefulPartitionedCall/model_1/conv2d_6/Conv2D/ReadVariableOp", "shape": [3, 3, 64, 128], "dtype": "float32"}, {"name": "StatefulPartitionedCall/model_1/conv2d_6/BiasAdd/ReadVariableOp", "shape": [128], "dtype": "float32"}, {"name": "StatefulPartitionedCall/model_1/instance_normalization_6/moments/mean/reduction_indices", "shape": [2], "dtype": "int32"}, {"name": "StatefulPartitionedCall/model_1/instance_normalization_6/moments/variance/reduction_indices", "shape": [2], "dtype": "int32"}, {"name": "StatefulPartitionedCall/model_1/instance_normalization_6/batchnorm/add/y", "shape": [], "dtype": "float32"}, {"name": "StatefulPartitionedCall/model_1/instance_normalization_6/Reshape", "shape": [1, 1, 1, 128], "dtype": "float32"}, {"name": "StatefulPartitionedCall/model_1/instance_normalization_7/Reshape_1", "shape": [1, 1, 1, 128], "dtype": "float32"}, {"name": "StatefulPartitionedCall/model_1/instance_normalization_4/Reshape_1", "shape": [1, 1, 1, 64], "dtype": "float32"}, {"name": "StatefulPartitionedCall/model_1/conv2d_4/Conv2D/ReadVariableOp", "shape": [3, 3, 32, 64], "dtype": "float32"}, {"name": "StatefulPartitionedCall/model_1/conv2d_4/BiasAdd/ReadVariableOp", "shape": [64], "dtype": "float32"}, {"name": "StatefulPartitionedCall/model_1/instance_normalization_4/moments/mean/reduction_indices", "shape": [2], "dtype": "int32"}, {"name": "StatefulPartitionedCall/model_1/instance_normalization_4/moments/variance/reduction_indices", "shape": [2], "dtype": "int32"}, {"name": "StatefulPartitionedCall/model_1/instance_normalization_4/batchnorm/add/y", "shape": [], "dtype": "float32"}, {"name": "StatefulPartitionedCall/model_1/instance_normalization_4/Reshape", "shape": [1, 1, 1, 64], "dtype": "float32"}, {"name": "StatefulPartitionedCall/model_1/instance_normalization_5/Reshape_1", "shape": [1, 1, 1, 64], "dtype": "float32"}, {"name": "StatefulPartitionedCall/model_1/instance_normalization_2/Reshape_1", "shape": [1, 1, 1, 32], "dtype": "float32"}, {"name": "StatefulPartitionedCall/model_1/conv2d_2/Conv2D/ReadVariableOp", "shape": [3, 3, 3, 32], "dtype": "float32"}, {"name": "StatefulPartitionedCall/model_1/conv2d_2/BiasAdd/ReadVariableOp", "shape": [32], "dtype": "float32"}, {"name": "StatefulPartitionedCall/model_1/instance_normalization_2/moments/mean/reduction_indices", "shape": [2], "dtype": "int32"}, {"name": "StatefulPartitionedCall/model_1/instance_normalization_2/moments/variance/reduction_indices", "shape": [2], "dtype": "int32"}, {"name": "StatefulPartitionedCall/model_1/instance_normalization_2/batchnorm/add/y", "shape": [], "dtype": "float32"}, {"name": "StatefulPartitionedCall/model_1/instance_normalization_2/Reshape", "shape": [1, 1, 1, 32], "dtype": "float32"}, {"name": "StatefulPartitionedCall/model_1/instance_normalization_3/Reshape_1", "shape": [1, 1, 1, 32], "dtype": "float32"}, {"name": "StatefulPartitionedCall/model_1/instance_normalization/Reshape_1", "shape": [1, 1, 1, 3], "dtype": "float32"}, {"name": "StatefulPartitionedCall/model_1/conv2d/Conv2D/ReadVariableOp", "shape": [7, 7, 3, 3], "dtype": "float32"}, {"name": "StatefulPartitionedCall/model_1/conv2d/BiasAdd/ReadVariableOp", "shape": [3], "dtype": "float32"}, {"name": "StatefulPartitionedCall/model_1/instance_normalization/moments/mean/reduction_indices", "shape": [2], "dtype": "int32"}, {"name": "StatefulPartitionedCall/model_1/instance_normalization/moments/variance/reduction_indices", "shape": [2], "dtype": "int32"}, {"name": "StatefulPartitionedCall/model_1/instance_normalization/batchnorm/add/y", "shape": [], "dtype": "float32"}, {"name": "StatefulPartitionedCall/model_1/instance_normalization/Reshape", "shape": [1, 1, 1, 3], "dtype": "float32"}, {"name": "StatefulPartitionedCall/model_1/instance_normalization_1/Reshape_1", "shape": [1, 1, 1, 3], "dtype": "float32"}, {"name": "StatefulPartitionedCall/model_1/conv2d_1/Conv2D/ReadVariableOp", "shape": [1, 1, 3, 3], "dtype": "float32"}, {"name": "StatefulPartitionedCall/model_1/conv2d_1/BiasAdd/ReadVariableOp", "shape": [3], "dtype": "float32"}, {"name": "StatefulPartitionedCall/model_1/instance_normalization_1/moments/mean/reduction_indices", "shape": [2], "dtype": "int32"}, {"name": "StatefulPartitionedCall/model_1/instance_normalization_1/moments/variance/reduction_indices", "shape": [2], "dtype": "int32"}, {"name": "StatefulPartitionedCall/model_1/instance_normalization_1/batchnorm/add/y", "shape": [], "dtype": "float32"}, {"name": "StatefulPartitionedCall/model_1/instance_normalization_1/Reshape", "shape": [1, 1, 1, 3], "dtype": "float32"}, {"name": "StatefulPartitionedCall/model_1/zero_padding2d/Pad/paddings", "shape": [4, 2], "dtype": "int32"}, {"name": "StatefulPartitionedCall/model_1/conv2d_3/Conv2D/ReadVariableOp", "shape": [1, 1, 3, 32], "dtype": "float32"}, {"name": "StatefulPartitionedCall/model_1/conv2d_3/BiasAdd/ReadVariableOp", "shape": [32], "dtype": "float32"}, {"name": "StatefulPartitionedCall/model_1/instance_normalization_3/moments/mean/reduction_indices", "shape": [2], "dtype": "int32"}, {"name": "StatefulPartitionedCall/model_1/instance_normalization_3/moments/variance/reduction_indices", "shape": [2], "dtype": "int32"}, {"name": "StatefulPartitionedCall/model_1/instance_normalization_3/batchnorm/add/y", "shape": [], "dtype": "float32"}, {"name": "StatefulPartitionedCall/model_1/instance_normalization_3/Reshape", "shape": [1, 1, 1, 32], "dtype": "float32"}, {"name": "StatefulPartitionedCall/model_1/zero_padding2d_1/Pad/paddings", "shape": [4, 2], "dtype": "int32"}, {"name": "StatefulPartitionedCall/model_1/conv2d_5/Conv2D/ReadVariableOp", "shape": [1, 1, 32, 64], "dtype": "float32"}, {"name": "StatefulPartitionedCall/model_1/conv2d_5/BiasAdd/ReadVariableOp", "shape": [64], "dtype": "float32"}, {"name": "StatefulPartitionedCall/model_1/instance_normalization_5/moments/mean/reduction_indices", "shape": [2], "dtype": "int32"}, {"name": "StatefulPartitionedCall/model_1/instance_normalization_5/moments/variance/reduction_indices", "shape": [2], "dtype": "int32"}, {"name": "StatefulPartitionedCall/model_1/instance_normalization_5/batchnorm/add/y", "shape": [], "dtype": "float32"}, {"name": "StatefulPartitionedCall/model_1/instance_normalization_5/Reshape", "shape": [1, 1, 1, 64], "dtype": "float32"}, {"name": "StatefulPartitionedCall/model_1/zero_padding2d_2/Pad/paddings", "shape": [4, 2], "dtype": "int32"}, {"name": "StatefulPartitionedCall/model_1/conv2d_7/Conv2D/ReadVariableOp", "shape": [1, 1, 64, 128], "dtype": "float32"}, {"name": "StatefulPartitionedCall/model_1/conv2d_7/BiasAdd/ReadVariableOp", "shape": [128], "dtype": "float32"}, {"name": "StatefulPartitionedCall/model_1/instance_normalization_7/moments/mean/reduction_indices", "shape": [2], "dtype": "int32"}, {"name": "StatefulPartitionedCall/model_1/instance_normalization_7/moments/variance/reduction_indices", "shape": [2], "dtype": "int32"}, {"name": "StatefulPartitionedCall/model_1/instance_normalization_7/batchnorm/add/y", "shape": [], "dtype": "float32"}, {"name": "StatefulPartitionedCall/model_1/instance_normalization_7/Reshape", "shape": [1, 1, 1, 128], "dtype": "float32"}, {"name": "StatefulPartitionedCall/model_1/lambda/strided_slice_1/stack", "shape": [1], "dtype": "int32"}, {"name": "StatefulPartitionedCall/model_1/lambda/strided_slice_1/stack_1", "shape": [1], "dtype": "int32"}, {"name": "StatefulPartitionedCall/model_1/lambda/strided_slice_1/stack_2", "shape": [1], "dtype": "int32"}, {"name": "StatefulPartitionedCall/model_1/conv2d_12/Conv2D/ReadVariableOp", "shape": [1, 1, 128, 128], "dtype": "float32"}, {"name": "StatefulPartitionedCall/model_1/conv2d_12/BiasAdd/ReadVariableOp", "shape": [128], "dtype": "float32"}, {"name": "StatefulPartitionedCall/model_1/instance_normalization_12/moments/mean/reduction_indices", "shape": [2], "dtype": "int32"}, {"name": "StatefulPartitionedCall/model_1/instance_normalization_12/moments/variance/reduction_indices", "shape": [2], "dtype": "int32"}, {"name": "StatefulPartitionedCall/model_1/instance_normalization_12/batchnorm/add/y", "shape": [], "dtype": "float32"}, {"name": "StatefulPartitionedCall/model_1/instance_normalization_12/Reshape", "shape": [1, 1, 1, 128], "dtype": "float32"}, {"name": "StatefulPartitionedCall/model_1/lambda_1/strided_slice_1/stack", "shape": [1], "dtype": "int32"}, {"name": "StatefulPartitionedCall/model_1/lambda_1/strided_slice_1/stack_1", "shape": [1], "dtype": "int32"}, {"name": "StatefulPartitionedCall/model_1/lambda_1/strided_slice_1/stack_2", "shape": [1], "dtype": "int32"}, {"name": "StatefulPartitionedCall/model_1/conv2d_14/Conv2D/ReadVariableOp", "shape": [1, 1, 128, 64], "dtype": "float32"}, {"name": "StatefulPartitionedCall/model_1/conv2d_14/BiasAdd/ReadVariableOp", "shape": [64], "dtype": "float32"}, {"name": "StatefulPartitionedCall/model_1/instance_normalization_14/moments/mean/reduction_indices", "shape": [2], "dtype": "int32"}, {"name": "StatefulPartitionedCall/model_1/instance_normalization_14/moments/variance/reduction_indices", "shape": [2], "dtype": "int32"}, {"name": "StatefulPartitionedCall/model_1/instance_normalization_14/batchnorm/add/y", "shape": [], "dtype": "float32"}, {"name": "StatefulPartitionedCall/model_1/instance_normalization_14/Reshape", "shape": [1, 1, 1, 64], "dtype": "float32"}, {"name": "StatefulPartitionedCall/model_1/lambda_2/strided_slice_1/stack", "shape": [1], "dtype": "int32"}, {"name": "StatefulPartitionedCall/model_1/lambda_2/strided_slice_1/stack_1", "shape": [1], "dtype": "int32"}, {"name": "StatefulPartitionedCall/model_1/lambda_2/strided_slice_1/stack_2", "shape": [1], "dtype": "int32"}, {"name": "StatefulPartitionedCall/model_1/conv2d_16/Conv2D/ReadVariableOp", "shape": [1, 1, 64, 32], "dtype": "float32"}, {"name": "StatefulPartitionedCall/model_1/conv2d_16/BiasAdd/ReadVariableOp", "shape": [32], "dtype": "float32"}, {"name": "StatefulPartitionedCall/model_1/instance_normalization_16/moments/mean/reduction_indices", "shape": [2], "dtype": "int32"}, {"name": "StatefulPartitionedCall/model_1/instance_normalization_16/moments/variance/reduction_indices", "shape": [2], "dtype": "int32"}, {"name": "StatefulPartitionedCall/model_1/instance_normalization_16/batchnorm/add/y", "shape": [], "dtype": "float32"}, {"name": "StatefulPartitionedCall/model_1/instance_normalization_16/Reshape", "shape": [1, 1, 1, 32], "dtype": "float32"}, {"name": "StatefulPartitionedCall/model_1/conv2d_17/Conv2D/ReadVariableOp", "shape": [7, 7, 32, 3], "dtype": "float32"}, {"name": "StatefulPartitionedCall/model_1/conv2d_17/BiasAdd/ReadVariableOp", "shape": [3], "dtype": "float32"}, {"name": "StatefulPartitionedCall/model_1/tf.math.multiply/Mul/y", "shape": [], "dtype": "float32"}]}]}